checkpoint_actor.pth (torch_old, 307934 bytes, 10 tensors)

fc1.weight f4 [256, 33]
00000000: 9525 d5bd 0c0a 403e b41b ea3d 552b 543e
00000010: 3dab 813e b780 8b3d 5999 aabe a28f ce3d
00000020: 8ad9 033e df8a e1bd c3fd 43bd f28a 113d
00000030: bed7 dabd a93e 85bd 6ede 253e ba98 d7bd
00000040: 6f30 473e aa8d c0bd 4c8a 193d 4ab9 4f3e
00000050: 26ce 71bd 4647 7a3d 9d7f a2bd bc45 1c3d
00000060: 2d04 3c3e 90c8 24be 603f 13bb 4e96 6a3e
00000070: 2082 f2bd 006a 263a eea4 79be 0cf7 033d
00000080: 3968 cd3d fb6b 97be aefc 4dbd 3e5d 14bd
00000090: 2f65 f13d 7166 a2be bbf2 013e e4b3 08be
000000a0: 3076 0ebb 90cb fd3d fe90 71bd d750 8e3d
000000b0: 199e c9bc 91d1 de3d b37e 5d3d 41b9 63bd
000000c0: 3912 b93d b3e3 63bc 00b5 30bd fda7 bfbd
000000d0: 608e 003f 38ea 8ebd 0692 103d 541c 66bc
000000e0: 795b bb3d a197 433d f1b6 d13d 5ff1 193e
000000f0: 9fc7 6d3e c0d1 b6bc 8c75 17bd 1f58 87be
00000100: 58bf 63bd 3f35 94bd 0902 5fbe ac71 493e
00000110: b6eb 4cbb 966b 0c3f add9 01be ad2a a1bd
00000120: 9f3b 9fbd cb44 103c 1b22 10be 5125 95be
00000130: 5451 1fbd 7009 b53c cfd8 463c 14b3 583d
00000140: 4a66 c8bc c242 64bd 3b70 903e ffb9 903e
00000150: eea0 bc3e 2cd7 463d 66b5 ed3c 6cad 1e3b
00000160: 5397 ce3c d010 853c 2391 993b 57af 133c
00000170: 9e49 8e3c c02c 8c3d 3887 e53d 9a17 133d
00000180: c1eb bfbd d897 12bd 8ce9 2d3f b396 26be
00000190: a270 14be a524 373e f7fa 13be a3ad eabb
000001a0: 0d90 a93e 595f f8bd b5a5 12bd 1d9d aa3e
000001b0: f36a f03b ba4c 7f3d 5119 383d 11de 793d
000001c0: 093d 823d 0326 d83d a6d2 cabd 3871 833e
000001d0: 369c 12be 9659 28bf 92c0 51be e5aa e0bc
000001e0: e05c 65bd 72d4 63bb e6d7 1a3c 97e1 153d
000001f0: bfd0 05bd 5d34 efbd dbf5 ea3d ec47 063e
00000200: 72b8 11bd 25eb ebbd 2870 e6bc 5d50 53be
00000210: c368 8c3d 6ea1 d4bd 03c0 ae3d c309 c33e
00000220: 16c3 283e df9f 6a3d 9e32 a9bc e685 a8ba
00000230: f8d4 1b3e 2537 51bd f431 ab3d 3db7 8a3d
00000240: e1a3 293d 2bda 843c 20de ccbc e608 3f3d
00000250: 43ea aabe 113c 6a3e 7ee7 443c b50a 54bd
00000260: 5aad 0c3c 3c83 983d 5edf 0b3d d872 96bc
00000270: d885 6ebc ec33 81bc f920 15bd 7463 a73e
00000280: 8ac3 27be 1465 04bd d618 95be 5e13 09bd
00000290: 3333 4a3f c3c5 b1bb ab48 543d 20c8 3d3e
000002a0: d1dd 97bc 2f83 e8be 1f1d 1cbe e27b 1d3e
000002b0: f32a 07be 34a2 153e 5961 8bbe 884d 143d
000002c0: 7f3b 0b3d be31 043e b75e 0bbe db7d c53d
000002d0: ecb0 f0bc d8db 47be 3d6c eebd d163 1fbe
000002e0: 21f2 9d3d 18df 97bd 3195 0abd d419 2f3d
000002f0: 8aee 7a3d 5966 c33b 669b b53d a173 203e
00000300: 41a1 533e 8ed3 883c 445a 06bd fc7f 5fbe
00000310: a0a2 69bc fb07 24bf c671 0b3d 7017 693c
00000320: e6ee e83d 8f83 543e 27f1 a73e 7c2e 52bf
00000330: ecb8 2f3e 1b99 dcbc ade0 293c fbba 31be
00000340: 5515 bd3d 2463 d8bc 179f 78bd 0a3c 87b9
00000350: 4c53 703c c467 5fbe 9ebb 96be 1174 943d
00000360: 30b1 a73d 2c3c e7bc abc5 453b 93d0 d83b
00000370: 3441 0d3d e4f3 08bd 90d4 ccbc 650e 9ebc
00000380: d5c5 7fbd fdcb 4a3e ef1a f53d 64f4 fdbc
00000390: 8843 4cbe 841d 563d 22d5 bebd c338 6bbe
000003a0: 9445 21bd 3725 d93b 8747 7dbe 56a0 c1bd
000003b0: 07b8 aabe 42b9 fdbd 2f95 2b3c 20a9 40bd
000003c0: b147 083d 4cc8 b6bd 8c74 73bd fb6c 26bc
000003d0: e591 62bc e16e 0c3e 771b 863d c98d 92be
000003e0: 19a1 6e3d 6fe2 4dbd 2501 76be 809d 6539
000003f0: 0072 b03d 0430 bebd 417b fd3c 9bdf 173e
-0.10407559 0.18753833 0.11431065 0.20719655 0.25325957 0.0681166 -0.3332012 0.100859895
0.12875953 -0.11012816 -0.047849428 0.0355329 -0.10685681 -0.06506092 0.16198131 -0.10527177
0.1945207 -0.0940202 0.037485406 0.20285526 -0.05903449 0.061103128 -0.079344966 0.03815244
0.18360968 -0.16092134 -0.0022468194 0.22908899 -0.118412256 0.00063481927 -0.24379322 0.032218024
0.100296445 -0.2957457 -0.050289802 -0.036221735 0.11786877 -0.31718782 0.1269025 -0.13349873
-0.0021737926 0.12392342 -0.058976166 0.06949013 -0.02461152 0.10879815 0.054075908 -0.055596594
0.09036679 -0.013909268 -0.043141365 -0.09358213 0.50217247 -0.069782674 0.03529551 -0.01404484
0.091483064 0.047752026 0.102399714 0.15033482 0.2322068 -0.022316813 -0.036977336 -0.2643442
-0.0556024 -0.072367184 -0.2177812 0.19672269 -0.0031268424 0.54851663 -0.12680693 -0.07869468
-0.07775044 0.008805464 -0.1407551 -0.29130033 -0.03889592 0.022099227 0.012136652 0.052905157
-0.024462838 -0.055727728 0.28210625 0.28266904 0.3684153 0.048545048 0.029017162 0.0024212254
0.025218641 0.016243368 0.004686491 0.009013972 0.017369088 0.06844473 0.112074316 0.03591118
-0.09371138 -0.03578934 0.6793449 -0.16268425 -0.14496091 0.17885073 -0.14451204 -0.0071618124
0.33117715 -0.12127561 -0.03580256 0.33322993 0.007336968 0.06232903 0.04494602 0.061002795
0.06359298 0.10554125 -0.09903459 0.25672317 -0.14317402 -0.657617 -0.20483616 -0.027425239
-0.055996776 -0.0034764078 0.009450888 0.036592092 -0.03266978 -0.116799094 0.114726745 0.13113374
-0.03557629 -0.1151946 -0.028129652 -0.20636125 0.06855919 -0.10382353 0.08532717 0.38093385
0.1648067 0.05728137 -0.020654019 -0.0012857288 0.1521796 -0.05107798 0.08359137 0.06773231
0.041416053 0.016217312 -0.025008261 0.046639346 -0.33381853 0.22874476 0.012018083 -0.051768024
0.008586252 0.07446906 0.034148566 -0.018365309 -0.014558278 -0.015771829 -0.0364084 0.32693064
-0.16383186 -0.032322958 -0.2912051 -0.033465736 0.78984374 -0.0054251864 0.051827114 0.18533373
-0.018538387 -0.45412585 -0.15245484 0.15379289 -0.13199978 0.14612657 -0.27222708 0.036206752
0.033992287 0.129096 -0.1361035 0.09643146 -0.029381238 -0.19517457 -0.116417386 -0.1556542
0.07712198 -0.07415599 -0.033833686 0.04274924 0.061262645 0.0059631285 0.088675305 0.15669109
0.20666982 0.01670244 -0.032800928 -0.21826166 -0.014259964 -0.6407468 0.03404405 0.014226779
0.11373691 0.2075331 0.32801172 -0.8210218 0.17160386 -0.026928475 0.010368508 -0.17356484
0.092325844 -0.026414461 -0.060698595 -0.0002579394 0.014668297 -0.21816927 -0.29440016 0.072487004
0.08188093 -0.028226934 0.0030177634 0.006616661 0.03448601 -0.033435717 -0.025003701 -0.019293973
-0.062444527 0.19804378 0.11968028 -0.031000324 -0.19947636 0.052274242 -0.093179956 -0.22970872
-0.039372995 0.006626751 -0.24734317 -0.0945441 -0.33343527 -0.12388851 0.01047258 -0.04703629
0.033271495 -0.08924922 -0.05943732 -0.010157819 -0.013828729 0.13714172 0.06548207 -0.28623798
0.058259103 -0.050264772 -0.24023874 0.00021897815 0.08615494 -0.09286502 0.030942561 0.14831392

fc1.bias f4 [256]
00000000: 596c a4be 0e2e e1be 2404 9abd 71b9 86bd
00000010: c653 79be a03b 0bbd cc68 99be 7120 5abe
00000020: 3eda 6dbe 62e0 33be e4ae 1cbe a7bd 7dbe
00000030: 9cb5 3dbe 1593 81be 7bc2 73be 63de ae3e
00000040: 1299 c2be c197 04be 1668 c1bd b10d dbbd
00000050: 3436 12bd 54d0 51be 5223 4ebe 0e41 0abe
00000060: 0522 693d 039c 2dbe 1464 1dbe 5f11 eabd
00000070: f8ac 15be 7661 36bd b9f2 9fbe e082 5cbe
00000080: 71bd 80be 47c7 9cbe 3467 efbe 86c7 5abe
00000090: ae43 91bb 3ec2 bbbe 5326 083e f565 7bbe
000000a0: 18a8 a9bd 1466 c63d cddb a33c 6c96 36be
000000b0: c9c7 7dbc bf91 97be 6b9f 30be 4643 aabd
000000c0: 6df8 95be 36ee d6bd 6fdf 61be 0ff2 0a3d
000000d0: eaa2 803e 6e61 81be dd66 33be 82d2 b8be
000000e0: ca5b 6abe 363f 6c3d 1089 f6bd 0b82 57be
000000f0: 2672 82be 9250 aebe f6d0 f4bd 2498 04be
00000100: d18f 423d 6c50 85be 5b16 c3bd a6ec 08be
00000110: e691 22be 8447 68be cc74 7bbe 320c 5a3e
00000120: c6e8 a9bd 8859 803d 1160 83bc 7d02 9fbe
00000130: e508 44be 8495 90bd b022 b2be d7e2 cdbd
00000140: be72 c1be 4448 b3be 723a 45be 94e8 61bd
00000150: 1cfb b6be 673e 0a3e 2a8b 3ebe ce1a 25be
00000160: 3a1e 7cbe 1fec 95be 01a0 4bbe 93fc ebbe
00000170: a6d5 9ebe 3634 a9be ad9b dcbd 4eb2 f9bd
00000180: 3ad5 6dbd f373 2dbb 7ede 59be 8d31 c0be
00000190: 263e a8be dd93 723d e23e 8dbe 787d 97be
000001a0: 00a6 02be 8b1b b8be bbdf c83d 6415 87be
000001b0: 697e 87be 168e a8be 9bde 55be 4e26 a4be
000001c0: 038c 93be a8d0 2dbe 7e9e 4b3e 0ae3 8b3e
000001d0: b0d8 babd b9a3 33be d25b f1be f5c0 11be
000001e0: a8e6 5abe 17f6 7abd f6bf acbe b101 fb3c
000001f0: ea74 76be decf 80bd 1ad3 95bd 7f7e fdbd
00000200: ccf5 213d 5737 a4be 11b7 d3bd 800e 95be
00000210: eaf1 57be dbfc 1abe 9cfd 61be aa57 2fbe
00000220: 77bc 01be 9ab6 8fbe 9d0c bfbe 2d18 46be
00000230: 8ba6 e5bd 560c c6be 84a7 bbbe 4c21 183e
00000240: 31f8 90bd 3448 f4bd 9d1a 7fbe ab12 dabd
00000250: 47bb 06be 7672 9dbe 2152 16be 5e3c a5be
00000260: 8aad 29be 7b0b 9fbe c480 08be 4c50 aabe
00000270: 7e41 35be c939 90be a91e 01bd a868 443e
00000280: cbec c2bd 6d4c cabc 2798 3ebe 698e 35be
00000290: 4dbe 7ebe b4cd 3abd 2497 cebc 1a78 b3bd
000002a0: 8ced 95be 1cb6 9cbd 283d 0cbe 713b 2dbe
000002b0: f0f7 83be d75f b4bd 0d04 dbbe 61b1 1dbe
000002c0: 9d3f 323d 0ccf 46bd 769c 173d 7378 61be
000002d0: fb75 0bbe d591 69be 4343 6cbd 0707 acbe
000002e0: 961b 24be a1d9 3bbe de07 85be 13b2 a5be
000002f0: 694b dfba f455 d83c dfd8 c8bd 8ef6 3fbe
00000300: 840c cb3d 9703 bbbd 1eab fdbd 46e2 8cbe
00000310: e23e 40be be0f 9dbe c0cb d0bd 02d4 4a3c
00000320: 32ec 80be 6ba2 9ebe 3988 aabd 577b 37be
00000330: a80c 763c ce40 0abe 32f7 ddbd 14d8 36bd
00000340: 9734 163e c0b3 3ebe 1638 c53c 0f9e 3ebe
00000350: 4c3a 0bbe 1fd3 893d 3d92 00be 8af5 0bbe
00000360: b214 4bbe 6de0 7cbd ffe2 b3be 68dc c0bc
00000370: efc0 11be 9a76 42be f103 c3be 5f51 b4be
00000380: b9d0 41bd 2ee2 0fbe 10b9 debd 79bc 6fbe
00000390: 2d51 d5bb 4b89 043d 820b a2be 3256 d0be
000003a0: 3683 953c 78d3 6dbe f434 293d b955 e6bd
000003b0: 2d3c 17be edb4 853d 92e6 37be f920 03be
000003c0: 9448 43bd 9db8 a4be 0565 afbd 7283 24be
000003d0: 1d86 5dbe aad1 8bbd 7951 1fbe 06dc b5be
000003e0: 1e7f 04be 8e88 9dbe 88a0 863c 6434 a7bd
000003f0: d0ba 8cbe 5951 53be 0241 07be ed7a 68be
-0.32113913 -0.4398045 -0.07520321 -0.06578339 -0.24348363 -0.03399241 -0.29962766 -0.21301438
-0.23227784 -0.17566064 -0.1530109 -0.24779378 -0.1852631 -0.25307527 -0.23804657 0.34154043
-0.38007408 -0.12948515 -0.09443681 -0.10695971 -0.035696223 -0.20489627 -0.20130661 -0.13501379
0.05691721 -0.16954045 -0.15370208 -0.114290945 -0.14616764 -0.04452654 -0.3123987 -0.215343
-0.25144532 -0.30620787 -0.46758425 -0.21365175 -0.004433117 -0.36671633 0.1329587 -0.24550612
-0.082840145 0.096874386 0.02000227 -0.17830819 -0.015489527 -0.29603383 -0.17248313 -0.08313613
-0.29291096 -0.10494654 -0.2205789 0.03392225 0.25124294 -0.25269645 -0.17519708 -0.36098105
-0.22886577 0.05767747 -0.12037861 -0.21045701 -0.25477713 -0.34045845 -0.11953919 -0.12948662
0.047500435 -0.2603792 -0.09525748 -0.13371524 -0.15875968 -0.22683531 -0.24556273 0.21293715
-0.08296351 0.06267077 -0.016037019 -0.31056586 -0.19144018 -0.07059768 -0.3479209 -0.10053032
-0.37782854 -0.35016072 -0.19260576 -0.055153444 -0.35738456 0.13500367 -0.18607774 -0.16123506
-0.24620906 -0.2928171 -0.19885255 -0.46091136 -0.31022376 -0.33047646 -0.1077188 -0.12192212
-0.058064677 -0.0026466816 -0.2127628 -0.37537804 -0.32859915 0.059223045 -0.27587038 -0.29587913
-0.12758636 -0.35958514 0.09808298 -0.26383507 -0.2646363 -0.32920903 -0.20885698 -0.32060474
-0.28817758 -0.16974127 0.19884679 0.27321655 -0.09123361 -0.17542924 -0.47140366 -0.14233764
-0.21377051 -0.061269846 -0.33740205 0.030640455 -0.24068037 -0.062896475 -0.07315655 -0.12377643
0.03954105 -0.3207347 -0.103376515 -0.29112625 -0.21088377 -0.15135519 -0.220694 -0.17123285
-0.1266955 -0.28069 -0.3731431 -0.1934516 -0.11213406 -0.38681287 -0.36651242 0.14856452
-0.07078589 -0.11927834 -0.24912496 -0.10648092 -0.13157378 -0.3075139 -0.14679767 -0.3227262
-0.16570106 -0.31063446 -0.1333037 -0.33264387 -0.17700765 -0.28169087 -0.03152338 0.19180548
-0.09517821 -0.024694646 -0.18612729 -0.17730106 -0.24877281 -0.04560633 -0.025218554 -0.08763142
-0.29282796 -0.07651922 -0.13695204 -0.16917206 -0.257751 -0.088073425 -0.42776528 -0.15399696
0.043517698 -0.0485373 0.037014447 -0.22018604 -0.13619225 -0.22809537 -0.057681333 -0.3359911
-0.16026148 -0.18344738 -0.25982565 -0.32362422 -0.0017036024 0.026408173 -0.0980699 -0.18746397
0.099144965 -0.09131544 -0.12386154 -0.27516383 -0.18773988 -0.30676073 -0.10195112 0.012379648
-0.25180203 -0.3098329 -0.08326764 -0.17918144 0.015017666 -0.13501284 -0.108381644 -0.044639662
0.14668499 -0.18623257 0.024074595 -0.18614982 -0.13596457 0.06729721 -0.12555785 -0.13667884
-0.19832113 -0.061737467 -0.35134122 -0.023542598 -0.14233755 -0.18990555 -0.38088945 -0.3521833
-0.047318194 -0.14051124 -0.108751416 -0.2341174 -0.006509921 0.032357495 -0.31649405 -0.40690762
0.018251043 -0.232252 0.041310266 -0.11246819 -0.14769049 0.065286495 -0.1795905 -0.12805547
-0.047676638 -0.321721 -0.0856419 -0.16065767 -0.21633191 -0.068270996 -0.15558423 -0.35519427
-0.12939116 -0.30768245 0.01643397 -0.081642896 -0.27486277 -0.206365 -0.13208392 -0.22703142

fc2.weight f4 [256, 256]
00000000: f9a6 c0bd aa96 2ebe 8d5a 3dbe 9f0b dbbc
00000010: 5884 073c fde3 5b3e 2a8d 3c3e 1ee1 ad3c
00000020: ab75 193d e63e 003e 8f51 79be 83b0 38bd
00000030: fc08 153f d4b4 72be 8147 80bd 4122 5abe
00000040: 3d9b 54be 6f59 e43d f609 ee3d 43b2 d0bd
00000050: dd0f babe ed57 b4bd fea9 a33e e105 e7bb
00000060: 1381 79bd a7c3 5cbe 3644 c2bd 6468 9bbe
00000070: c874 943d 2906 703e 00a0 253e e000 823e
00000080: aca0 21be bfd4 c73c 29fc acbd fa4f 4bbe
00000090: c143 4ebe 5f73 b8bd 1efd 803d d24c fd3d
000000a0: 7f3d cf3c e1ce ff3d c188 d63e bdc0 29be
000000b0: b703 013e bddc cfbd e850 23be ebfc cdbc
000000c0: 0aaf 0ebc df00 fabd 735d d93d c3d7 5bbd
000000d0: cb59 3dbd c4a2 093d 4c30 7cbd d754 2bbd
000000e0: 3c9f cc3d 0b84 afbe d8bd 05be 0c1f 3dbd
000000f0: 0371 813e 8c4a df3d 1685 5bbe 2e2e c93d
00000100: b4de 24bd 9c16 b83d c281 ef3c 9d16 c13e
00000110: abdd 3d3c 27eb 60bc 3777 48be a5d0 15bd
00000120: e6fe 8f3c 0856 a33e dc93 71bd 2f3b e03d
00000130: e57c b13e 09b1 863d 1e35 2d3e 7ed8 6d3e
00000140: 526b 433d 2ea1 cbbe 8c74 b3bd 52a9 5b3e
00000150: 8cb3 87bd aa05 f4bd 886c 933e 09d4 613c
00000160: 60ab 453e a99c cdbd 09b2 83bd c97b ba3c
00000170: f36d c2bd 627d 09be b66e 51be 9689 d6bd
00000180: ddda 683c 99e4 b5bd 80e0 72be 67cc c0be
00000190: e2f6 1ebd 794f 9fbc 6881 abbe ee1f 14be
000001a0: 38ad aa3e 4e7b ad3e eee7 1dbd daf5 d83e
000001b0: 5c76 07be 82db 7d3e 8a46 9a3d 99ed 893e
000001c0: df0c b43d 6b6c 9ebe 2f37 eb3d b443 49be
000001d0: 6525 373e 0484 e7bd 8b7c 35bd 71d2 0a3e
000001e0: b9b3 2bbe cc4b 3a3e 4e3c 103d 3b6f 513d
000001f0: 98d7 47be d84b 7bbd 5a73 1d3d 8628 233e
00000200: 64b1 b53e 1f3c e33d a6f7 bf3d de8c 66be
00000210: 32d2 58be d619 e2bc 12f4 f6bd dd1b d4bd
00000220: 6013 9a3b 280e b03d 5e07 2f3e a82d d2be
00000230: 429a c63d 68d3 443e 804e c63d 92ee 043e
00000240: 14b8 783e e332 283e e5f1 0ebe 80e2 f5bd
00000250: f719 2b3e bde9 09bd c43a b63c 63b6 b33e
00000260: 366c 813e 560d 5d3e e011 933e f708 fb3b
00000270: a052 063d 72da ea3c f3c2 2e3e 0f76 f4bd
00000280: 40fb 96bd 6b03 043e 8d97 c7bd 5946 89bc
00000290: acb1 70be 6a78 5cbe e33a 103e c579 c73c
000002a0: e1e1 263e b853 d03c 8461 babc 9eab 2bbe
000002b0: 8fd4 82bd d511 87bd 23b0 133d 1231 e13c
000002c0: faee e33d e5f4 4cbe 6434 ad3d 3e8d 9bbe
000002d0: 45a9 fbbd 8aa8 10bb 3eb4 b63d 95ad 99be
000002e0: c17c b73e 3506 30be c810 1abd 8f59 3e3d
000002f0: 8711 a33e e29f ca3c eeff 44be ad77 bbbe
00000300: 6c04 a7bc eefe 5c3d 4eb1 9f3e cc3d 07be
00000310: 6157 d53d cc7d 4abd 9717 943d c572 e2bc
00000320: 7836 a5bd c144 1f3c 59cc 083d 77a1 f93c
00000330: 97e6 323e 8deb d93c 14ee 5cbe 777d 22bd
00000340: 1e6c 953d cfb2 433d 2412 9b3e fa53 d33e
00000350: c428 a5be a682 4dbe c425 933c bf2a d33d
00000360: 5562 08be 3e3a 96bd dc3a 3bbe 34f9 eb3d
00000370: 3501 3e3e b71c 75be 2256 22be 6b88 163d
00000380: 28c6 a33e 51b3 15bc 1f82 f83e c9b6 4ebe
00000390: 443b df3c 2e38 a1bc a5b9 083e 4a2a 203e
000003a0: fdc6 0b3e 007e 21be 4cc9 ab3e e126 093e
000003b0: 6265 84be efaf 6a3d 2bd7 b33e 3fff 5c3e
000003c0: 5548 0dbe 4bd9 febc 41df e8bc 2a4b babe
000003d0: 17fc 693e 8973 7e3e bf98 06be ec79 a83e
000003e0: c884 99be f2a6 1b3e 3421 bdbd 356a b9be
000003f0: 0650 edbd 0f29 563e 7e7b ecbc d3a9 96bd
-0.094068475 -0.17049661 -0.18491574 -0.02673894 0.008271299 0.2147369 0.18413225 0.021225508
0.037465733 0.12523994 -0.24347518 -0.04509021 0.58216834 -0.23701793 -0.06263638 -0.2130213
-0.20762344 0.111498706 0.11622994 -0.10190251 -0.36340228 -0.08805833 0.3196563 -0.0070502614
-0.06091411 -0.2155901 -0.094856665 -0.3035308 0.07248837 0.2343985 0.16174316 0.25391293
-0.15783948 0.024393437 -0.08446533 -0.19854727 -0.20143034 -0.0900638 0.06298278 0.12368168
0.025297878 0.12490631 0.4190121 -0.1657743 0.12599073 -0.10149524 -0.15948832 -0.025145015
-0.008708725 -0.122071974 0.10613527 -0.053672563 -0.04622821 0.03360249 -0.061569497 -0.041828956
0.09991309 -0.34280428 -0.13060701 -0.046172187 0.25281534 0.109028906 -0.21437487 0.09823261
-0.04025145 0.089886874 0.029236678 0.37712565 0.011588494 -0.01372794 -0.19576727 -0.036575932
0.0175776 0.31901574 -0.0589789 0.109487884 0.346656 0.065767355 0.16914794 0.23227116
0.04770977 -0.39771408 -0.08762464 0.2145131 -0.06626043 -0.11915143 0.2879374 0.013783463
0.19303656 -0.10039646 -0.06430442 0.022764103 -0.094936274 -0.13426736 -0.20452389 -0.10475461
0.014212337 -0.08881492 -0.23718452 -0.37655947 -0.038809665 -0.019447075 -0.33497167 -0.14465305
0.3333528 0.33883137 -0.038551264 0.4237507 -0.13228744 0.24790767 0.075329855 0.26939085
0.087915175 -0.3094209 0.11485135 -0.19654733 0.17885359 -0.11304477 -0.044308227 0.1355684
-0.16767778 0.18192977 0.03521376 0.05113147 -0.19515836 -0.061351627 0.038440086 0.15933427
0.354869 0.110954516 0.09373407 -0.22514674 -0.21173933 -0.02760021 -0.120582715 -0.10356877
0.0047020167 0.0859645 0.17092654 -0.41050458 0.09697391 0.1922127 0.096829414 0.12981632
0.2428897 0.16425662 -0.13959463 -0.12006092 0.16709124 -0.033670176 0.022244819 0.35100088
0.2527787 0.21587119 0.28724575 0.007660981 0.03279364 0.028668616 0.17066555 -0.119365804
-0.07372141 0.12891929 -0.09745703 -0.016757177 -0.23505276 -0.2153031 0.14084964 0.024350056
0.16297103 0.025430545 -0.022751577 -0.16764686 -0.063881986 -0.06595198 0.03605665 0.027489219
0.111295655 -0.20015295 0.08457258 -0.30381197 -0.12288145 -0.0022073113 0.08921097 -0.30015245
0.35837367 -0.17189868 -0.03761366 0.04647213 0.3184931 0.024734441 -0.19238254 -0.36614743
-0.02038785 0.053954057 0.3118996 -0.13207167 0.10417057 -0.049436375 0.07231062 -0.027642617
-0.0806703 0.009720982 0.033398006 0.0304725 0.17470776 0.026601577 -0.21575195 -0.039670434
0.07296012 0.047777947 0.30287278 0.41275007 -0.32257664 -0.2006937 0.017962344 0.103108875
-0.1331876 -0.073353276 -0.18284172 0.11522141 0.18555148 -0.23936735 -0.1585317 0.036751192
0.3198712 -0.009136991 0.48536775 -0.20186915 0.02724994 -0.019680109 0.13352068 0.15641132
0.13650127 -0.15770721 0.33552015 0.13393737 -0.258586 0.05729669 0.35125098 0.21581744
-0.13797124 -0.031109473 -0.028426768 -0.3638547 0.22850071 0.2484876 -0.13144206 0.3290552
-0.29984117 0.15200403 -0.092348486 -0.36213842 -0.11587529 0.209141 -0.02886748 -0.0735661

fc2.bias f4 [256]
00000000: fc73 2ebe 9566 2fbe a866 a1bd ece0 01be
00000010: 23ca 8abe b941 b9ba fa6b 7dbd 02c8 9cbd
00000020: 3b7d b4bc b172 78bd ef32 35be d8fc b1bd
00000030: eb86 6dbe 52d3 f53b 3d11 4f3d 4e4a c2bd
00000040: 7cef 01bc 227e f1be 701e 71be 8c31 e53c
00000050: 0765 71be 132b b1bd 645c 2e3d e0e8 44be
00000060: 4d1d 92bd 776c 37bc 5595 4dbe 8054 20be
00000070: 2f3e 8e3d 5d7d c2be c839 cabd d0b2 18be
00000080: 988c 53be c6cb 90be 5e8c d63c dcc1 483d
00000090: 23a2 be3d f489 9cbd fddc 87be c4e1 89bd
000000a0: 9ae1 cdbd bc95 14be 5173 22be b7b4 72bd
000000b0: 8713 c4bd 11f2 74bd 185d a6bd f838 4ebe
000000c0: fabe 52be 924e 543c 848e 6abe 2426 ecbd
000000d0: c8c8 0ebd 2f4a 97be 52cc 28be 89a4 37be
000000e0: 1e4e 50be 318c 6dbe 66da 5cbe 8207 5abe
000000f0: 0805 64bc 4b4b 1dbd 510a babd 1e50 12be
00000100: 3819 14be 5446 8fbd 0934 3fbe a9c9 db3c
00000110: f59d 2fbe 0c93 61bd 22d6 35be 58d5 4bbd
00000120: 485a f4bb 3da4 8dbe 69b5 73be 34b6 a2bd
00000130: 0e57 593d d50f 833d ca69 7e3d b84e 82be
00000140: 4881 0bbe dd3a afbe 5089 28be 99f4 603d
00000150: b8d0 b4bd d949 8ebe f1c6 d6bc 8b2a 6fbd
00000160: 98ba 01be 3037 a5bc 88d6 193d ec14 94be
00000170: 865e 6fbe d96f b4bd b345 b2bb 4348 56be
00000180: eff9 5dbd 8566 17be 2c32 96bc da0d a7bd
00000190: 9a71 1fbe eb49 d4bd 3a00 99be 0df6 12be
000001a0: c12a 9fbd 03be 29be 296b 55bd dc40 d6bd
000001b0: 2bd7 46be 3a26 e8bd 1b45 77be ffdb 73be
000001c0: 382f ecbd 1f3a 19be 86b6 2dbd 357c 95bd
000001d0: c4ac 8bbe 2d1d 74be 8ebc ef3d 8fb4 2fbe
000001e0: eb10 6abd aea8 ccbc 2855 abbe c92f 66bc
000001f0: 81ed 44be cb17 8bbe f2a6 9cbd 3515 8dbd
00000200: 067f 0c3d 9a31 debd c96d 42bc b776 13be
00000210: 2389 123e 78c4 3fbe 2377 2bbe ce23 aabe
00000220: 44c6 31be 166e 2fbe beaa 20be 3b87 acbd
00000230: 99dc c9bd 2fab 61be 2785 32bd c28d 38bd
00000240: 3d4d 19be 2048 03be e1f0 d43d 87cb bcbe
00000250: 2fff 8fbd 9af3 3b3c 6ef1 69be 258e 73be
00000260: 18bc 65be 48df 20bd d362 633c 2680 10be
00000270: 539a 2abe c5d4 33be f189 2dbd f1c1 81be
00000280: 3929 7fbb e213 6bbe e034 7fbd 35dd afbd
00000290: 2dbf 14be ddec 7cbe dcee 0a3d d90f 3ebd
000002a0: a7d7 9e3b 39c2 063e 5419 b4bd b029 7c3e
000002b0: 0fd4 96bd e772 81bd 0d95 27be 9fa1 f3bd
000002c0: 402a 32be 532f a1bc 71a6 b0bd a742 c23c
000002d0: 20ec f5bd 39d3 37be 5fd6 35be b66d 833d
000002e0: eab0 19be 4760 83bb 1a75 9e3b 1b6e 12be
000002f0: 79ff 91be cd01 34be 0499 b1be 39a4 1cbe
00000300: 329d a83c 5113 3fbe 1d5a 06be b89a 4abd
00000310: 8b54 cfbd a140 89be c836 f3bd b51e 77be
00000320: 3471 0dbd 4580 ccbd 8a56 a8be dfb7 61be
00000330: f9b8 49be eebb a53d 4ee3 61be 470e 12be
00000340: e5f4 0dbe a237 ba3d 9932 713e 0ac2 24bd
00000350: abae 82be 26b2 13be 0d75 593d 06ee 2e3e
00000360: a24e 2cbc 4f61 70bd b957 db3c d49e afbe
00000370: f70b 52be a088 77be 3200 363d 7a5a b2be
00000380: aeeb 0b3b 9787 1ebe 49b9 ecbd f3ce 02bd
00000390: c247 43bd 479a 10b9 f827 a6be 646a 3ebe
000003a0: 1750 55be 30fa 20be ceef 5bbd 1b24 7f3d
000003b0: d072 11be 49d8 42be a487 d5bd 486f a1be
000003c0: fd72 65be 6f12 c4bd 779a 9cbd 6004 8e3c
000003d0: d891 88be 6706 a7bd 681a 60bd ea0d 0abe
000003e0: 778b 8ebe f50c 4b3d ad6d 69be 4839 9fbc
000003f0: f46c d0be 4d06 063d da8c 0abe d5f4 babd
-0.17036432 -0.17128976 -0.07880908 -0.12683457 -0.27107343 -0.0014133967 -0.061870553 -0.07655336
-0.02203237 -0.060656253 -0.17695211 -0.08690804 -0.23195998 0.007501998 0.05055355 -0.09486829
-0.007930633 -0.47166544 -0.23546767 0.027977727 -0.23573695 -0.08650794 0.04256858 -0.1922946
-0.07134495 -0.011195294 -0.20076497 -0.15657234 0.06945454 -0.3798627 -0.09874302 -0.14911962
-0.20659101 -0.28280467 0.02618998 0.049013004 0.09308269 -0.076435 -0.26535788 -0.067325145
-0.10052796 -0.14510244 -0.15864302 -0.059254374 -0.09574037 -0.059801165 -0.08123225 -0.2013892
-0.20580664 0.012958186 -0.22905928 -0.11530712 -0.03485945 -0.29548785 -0.16484192 -0.17933859
-0.203423 -0.2319801 -0.21567687 -0.21291927 -0.013917215 -0.038401883 -0.09083999 -0.14288375
-0.14462745 -0.06995836 -0.18672194 0.026829557 -0.171501 -0.055071875 -0.17757466 -0.049764007
-0.0074570514 -0.27664366 -0.23799671 -0.07944909 0.053061537 0.06399504 0.062112607 -0.25450683
-0.13623536 -0.34224597 -0.1645863 0.054920767 -0.088288724 -0.27790716 -0.02621791 -0.05839018
-0.12668836 -0.020167917 0.03755811 -0.28922212 -0.23375902 -0.08810396 -0.0054404377 -0.20926003
-0.054193433 -0.14785202 -0.01833447 -0.08156939 -0.1557068 -0.10365661 -0.29882985 -0.14351673
-0.077718265 -0.1657639 -0.05210415 -0.1046159 -0.19418018 -0.11335416 -0.24147455 -0.2381439
-0.11532444 -0.14963578 -0.042410396 -0.07299081 -0.27280247 -0.23839255 0.11705886 -0.17158721
-0.05714504 -0.024982776 -0.33463407 -0.014049479 -0.19231226 -0.2716659 -0.0764903 -0.068888105
0.034300826 -0.108493045 -0.011866995 -0.14400755 0.14310126 -0.1872729 -0.16744666 -0.33230442
-0.17360789 -0.17131838 -0.15690133 -0.08424231 -0.09856529 -0.22037958 -0.043584015 -0.045057066
-0.1497087 -0.12820482 0.103975065 -0.3687403 -0.07031094 0.011471653 -0.22846004 -0.23784693
-0.22435033 -0.039275438 0.013878542 -0.14111385 -0.16660433 -0.17561634 -0.04236788 -0.25343278
-0.0038934483 -0.22956803 -0.062306285 -0.08587114 -0.14526053 -0.24699731 0.0339192 -0.046401832
0.004847485 0.13160028 -0.087938935 0.24625278 -0.07364666 -0.06320744 -0.16365452 -0.11896061
-0.1739893 -0.019675886 -0.08625496 0.023713423 -0.12007928 -0.17951669 -0.17757557 0.0641741
-0.15008894 -0.00400928 0.004835737 -0.14299814 -0.28515223 -0.17578812 -0.34687054 -0.15297021
0.020582769 -0.18659712 -0.13120313 -0.049463958 -0.10123547 -0.2680712 -0.11875683 -0.24132808
-0.034531787 -0.09985403 -0.32878524 -0.22042798 -0.19699468 0.08092485 -0.22059366 -0.14263259
-0.13862951 0.09092642 0.23554458 -0.040224113 -0.25523886 -0.14423427 0.053090144 0.17082986
-0.010516794 -0.05868655 0.026775228 -0.34300864 -0.20512377 -0.24173212 0.04443378 -0.34834653
0.0021350193 -0.15481411 -0.11558778 -0.031935643 -0.047675855 -0.00013790383 -0.3245237 -0.18595272
-0.20831333 -0.15720439 -0.053695492 0.062290292 -0.14203954 -0.19027819 -0.10426262 -0.31530213
-0.22407146 -0.095738284 -0.07646649 0.01733607 -0.2667377 -0.08155518 -0.054712683 -0.1348187
-0.27840778 0.049572904 -0.22795744 -0.019436494 -0.40708125 0.032720853 -0.13530293 -0.09128729

fc3.weight f4 [4, 256]
00000000: 090a a0be 243d 46be a965 823e 27f6 243f
00000010: 8569 e83d bec2 303f 59c5 2cbc 18ea 83bf
00000020: 16c2 b13c 5b13 2dbf f8b8 573e a78e 0fbf
00000030: 9df2 e8be f4e8 92bc d325 94be 4523 643e
00000040: 5a6a 46be c0a7 023e 8434 4b3e e510 aa3d
00000050: eb82 5e3e deca 16bf 2f31 a8be eb1e f33e
00000060: 8a31 083e df23 ca3e dd81 993e 6d65 8cbc
00000070: c674 e1be 52c9 0dbf 4ce6 bebe b492 6d3e
00000080: ba07 a23d 1f86 893e 8574 9abe ffeb 1f3e
00000090: 2995 a53e f492 1b3e 33e9 853e 1c21 683e
000000a0: 3458 503f dcce f03e 5529 353e d21d 893e
000000b0: 479a 0fbe cf38 3b3e d75d b7be 9f3c 9d3e
000000c0: 8689 b13e 0104 66be 6a14 75be f5bf 22bf
000000d0: 3c06 febe c4e1 4b3f 6892 943e 7f2b 2ebe
000000e0: 6755 46bf ee88 a63c 43f3 233f 4074 91be
000000f0: dc96 c03e 5cce a53d 6338 86bf 2e96 b4be
00000100: 134b d83e b5e3 f1be 2daa b43e f66c df3e
00000110: b6d9 693e 6ae3 6bbf 0e59 bcba 0c90 053f
00000120: 2461 3b3f 398f 473e e222 443f 470e 43be
00000130: e178 0b3e 70b7 e63e affe a4bc 39fa 5c3d
00000140: ac78 653e dbd8 0ebf c4b1 06bf 0dfa 92bd
00000150: ce78 52bc 5430 f2bd 5718 0f3e 6949 343e
00000160: fb0e 32bf 983a 21be 6068 f9bc c774 a03c
00000170: f373 0c3f 901b bf3c 240a ba3e ca8b 873e
00000180: 1f35 953d 0cc3 b1be 8cff 5bbf 2286 a43e
00000190: a5e3 f5be db4f 5cbe a356 4ebd 4e62 123e
000001a0: c16c 783f f3f7 2e3f fd57 0b3b b4d4 f0be
000001b0: 0596 a4be fdd3 1dbf 68e7 2b3e 8a8e 213e
000001c0: 355d 20bd 32d1 723e 41fd 0f3e 2b5e f3be
000001d0: 35b7 983d b2e8 c83e 5c6c cebe a325 7b3d
000001e0: d67c af3e a036 2b3d 9198 29bd e8a1 30bf
000001f0: 51d3 69be 3846 1fbe 0f36 fdbe 790c 4fbe
00000200: a450 9fbc 2d95 983e db2d 12bf e23f 053f
00000210: 79aa 21bf a8bf 5f3e f0de 7d3e 044c 0e3e
00000220: f5fd f3bd a3ef f6bd f6ca c53c a580 7c3e
00000230: 43c8 693c f2cb 8e3e 4eba 1dbf a661 86bd
00000240: b079 043e c30a 30bd d84b 93be 7016 edbd
00000250: c9c8 f53e cbf6 ee3e 27fc e03e 86ae ad3c
00000260: 6bf5 113f 892b dabd 3ac0 02bf 7636 9abe
00000270: 7c38 4a3e 541a a0bd 8d71 88be 1a2f 71be
00000280: c1db 2b3e 46f5 3e3d 959c 1dbf b69c 6d3e
00000290: b502 88be 13ee 3dbf 0771 e9be 3a96 973e
000002a0: 60c9 30be e6ba 6d3d 5dfd 90be fe16 1bbf
000002b0: f927 0c3f 7a2a 3a3d 8a53 203f d903 c1bd
000002c0: fcfd 3dbe 80e8 3a3e 091b 22be ee5d 36bf
000002d0: 5567 013e bb85 1fbe 2157 0bbf 738a 2dbf
000002e0: fe38 3f3e 3f65 a83d 9784 81bf 56a4 0e3f
000002f0: 06d9 433e ded6 20be 8f13 abbe 76c3 2e3e
00000300: 63e0 09bf 699d 49bf b54d 5ebe 7de5 8a3d
00000310: 2520 4cbe 689b 443f 32e5 4c3e 055b b9bd
00000320: 94d2 1bbd 4828 043f ef07 6a3d da4d b1be
00000330: 3f48 c0be ffd4 24bf 264e 9f3e af49 453f
00000340: ac21 0abf 7a3c 63bf 8a81 be3d b678 bcbe
00000350: 5a1a 65be bb5e 06bd 7275 7d3e 8c79 acbc
00000360: ac79 39bf f6b3 523b 0380 d43b 6c98 d03b
00000370: 2686 923d 2547 593f 2c11 cebe ebff c23d
00000380: 0955 863e 5a1c b53b 7448 bb3e 0175 f5bc
00000390: 6a29 27be 29ef b8bd 0bcf 3d3f 2fcf 303e
000003a0: ffc1 46bf 3de8 103e 1d57 29bd dd78 47bd
000003b0: ec22 e4be b4ba 893c b28a 683e f9e4 b5bd
000003c0: 062f e5bd 2188 323f 6702 08bd 8a0d 1cbe
000003d0: 4880 bb3e 811c 813d ff9e bb3e e8b2 73be
000003e0: 7cad bb3d 6d6c 3f3d bc3d a3be cf34 1abe
000003f0: 3de4 42bd 9db4 efbe eac4 b93e 0533 bc3e
-0.31257656 -0.19359261 0.25468186 0.644381 0.11348251 0.69047153 -0.010545098 -1.0305815
0.021698993 -0.6760766 0.21066654 -0.56077045 -0.454976 -0.017933346 -0.28935108 0.2227908
-0.19376507 0.12759304 0.19844252 0.083040036 0.21729629 -0.589033 -0.32850024 0.47484526
0.13300148 0.39480492 0.2998189 -0.017138207 -0.44034404 -0.55385315 -0.37285078 0.23200494
0.0791163 0.2686014 -0.30167022 0.15617369 0.32340363 0.15192777 0.2615448 0.2266888
0.8138459 0.4703282 0.17691548 0.26780564 -0.14023696 0.1828339 -0.35813782 0.30710313
0.34675235 -0.22462465 -0.23933569 -0.63574153 -0.4961413 0.79641366 0.2901795 -0.1700878
-0.77474064 0.020328965 0.6404306 -0.28409004 0.37615097 0.080960006 -1.0485958 -0.35270828
0.42244777 -0.4724404 0.35286084 0.43637818 0.22836956 -0.9214388 -0.0014369802 0.52172923
0.731951 0.19488229 0.76615727 -0.19048415 0.1362033 0.45061827 -0.020140974 0.05394957
0.22409314 -0.55799645 -0.52615 -0.071766 -0.012846185 -0.11825624 0.13974129 0.17606129
-0.6955411 -0.15745008 -0.030445278 0.019586934 0.54864424 0.023328573 0.36335862 0.26473838
0.07285523 -0.3471912 -0.8593681 0.32133585 -0.48025241 -0.21514837 -0.050375592 0.14295313
0.97040945 0.6834709 0.0021262162 -0.4703728 -0.32145706 -0.61651593 0.16787493 0.1577703
-0.03915139 0.23712614 0.14061452 -0.47532782 0.07456819 0.39240032 -0.40317047 0.06131519
0.3427493 0.04180014 -0.041405264 -0.6899705 -0.22834517 -0.1555413 -0.49455306 -0.20219602
-0.019447632 0.29801312 -0.5710122 0.520506 -0.63150746 0.21850455 0.24792075 0.13896185
-0.11913673 -0.12057426 0.02414463 0.24658449 0.0142689375 0.27889973 -0.61612403 -0.06561594
0.12937045 -0.042979013 -0.28768802 -0.11576545 0.4800475 0.46672663 0.43942377 0.021201383
0.57015103 -0.10652835 -0.51074564 -0.30119675 0.1974811 -0.07817522 -0.26649132 -0.23553124
0.16783048 0.04662063 -0.6156705 0.23204312 -0.26564565 -0.741914 -0.45594046 0.296068
-0.17264318 0.05803957 -0.283183 -0.6058196 0.54748493 0.045450665 0.6262747 -0.09424562
-0.18553919 0.18252754 -0.15830626 -0.71237075 0.12637074 -0.15578358 -0.54429823 -0.6778938
0.18674085 0.08222436 -1.0118588 0.55719507 0.19125757 -0.15706965 -0.3341336 0.1706675
-0.5385801 -0.78755814 -0.2170933 0.06782053 -0.19934137 0.7679963 0.20009306 -0.09050564
-0.03804262 0.51623964 0.057136472 -0.3462971 -0.3755512 -0.64387506 0.3111431 0.7706556
-0.5395763 -0.88764155 0.09302051 -0.36810845 -0.22373334 -0.032805186 0.24751833 -0.021054052
-0.7245128 0.0032150722 0.0064849867 0.0063658264 0.07154493 0.8487418 -0.40247476 0.09521469
0.26236752 0.0055270614 0.36578715 -0.029963018 -0.16324392 -0.09029991 0.7414405 0.17266534
-0.77639765 0.14151092 -0.041342843 -0.04869925 -0.44557893 0.01681266 0.22709158 -0.08881564
-0.1119061 0.69738966 -0.033205416 -0.1523954 0.36621308 0.06304265 0.36644742 -0.23798716
0.09163949 0.046734262 -0.31883037 -0.15059207 -0.047580946 -0.46817484 0.36283046 0.36757675

fc3.bias f4 [4]
00000000: aa8c 0b3d 2295 96be 66a4 4dbd ec34 72bc
0.034069695 -0.29410654 -0.05020561 -0.014783125

bn1.weight f4 [256]
00000000: 2385 e83e 7116 843f 4508 483f 218b 853f
00000010: 2dd4 973f 7557 163f 8fe9 8f3f 8cdb 2c3f
00000020: a32c 903f 9272 203f b28a 823f 7bb8 5f3f
00000030: 3860 3f3f 3a2d 243f 987c 8b3f 1386 aa3f
00000040: 9c0a 913f 5a9d 2f3f 40d6 8a3f 5910 9a3f
00000050: 5295 a93f cad7 243f 4089 333f 3405 423f
00000060: 90c5 923f 2052 933f acb2 4d3f 6767 6d3f
00000070: 0730 5c3f a301 443f 35be 3f3f 3c22 353f
00000080: b48f 323f f88d b13f bbaf 4a3f ca73 6c3f
00000090: 595c 8c3f 28e1 903f f13c a13f 2cca 243f
000000a0: ef9e 883f 13c6 903f e9d2 053f c1c9 1c3f
000000b0: 4945 613f eab3 743f 78ee 823f 5387 923f
000000c0: 85c5 803f 8a3c ae3f f847 913f ac7c 943f
000000d0: 4503 163f b71b 8b3f 3af9 b03f 052a 5e3f
000000e0: 1c2f 803f 124b d43f 2f90 5c3f 52cb 9c3f
000000f0: f25c b63f 245f 3c3f 225a 4b3f 7813 963f
00000100: b908 403f a98f b53f b27c 953f 5c7a 803f
00000110: 0bd7 173f 8820 7b3f 3d02 843f 1e06 2a3f
00000120: 12b4 943f 234d 5f3f 2ccc 5d3f c9a5 803f
00000130: e74a 273f 12ef 943f ee49 9a3f 27c3 783f
00000140: 7cfd a03f ef10 123f 819f 723f 18e0 883f
00000150: e5c9 783f 2a35 273f a98b 803f ebfd 603f
00000160: c87c 833f 2b9f 813f 7348 8b3f 2d75 563f
00000170: 15ab 1a3f 22ae 813f dbb3 533f 6369 a63f
00000180: 422e ac3f 718a 483f cc93 373f 7eed 3f3f
00000190: b53d 763f 1767 2e3f 6a85 313f e2be 593f
000001a0: 4f58 5b3f 1e53 b63f 42af 833f 346e a23f
000001b0: 0bb4 ab3f df9e 5d3f 38ba 213f 8361 4c3f
000001c0: c2a6 c23f dfaa 31bf 5707 8f3f 9517 833f
000001d0: 166f 963f 9786 a53f 7fda 0a3f 2a10 933f
000001e0: e319 1d3f 3a97 603f 98bd 5e3f cd3f 2b3f
000001f0: 4cd3 503f 14ec 923f b3cb 993f 1b99 0f3f
00000200: f4bb 34bf f40c 843f 10ef 893f bae8 703f
00000210: e13c 613f fb86 6c3f 1676 463f 4aee 723f
00000220: 79bd 4b3f 39d4 613f de60 9e3f ac0a 493f
00000230: 3dfb fd3e 7c32 2d3f 02a8 2b3f 55ac 883f
00000240: 0e0c a23f 87fb 633f 6551 403f b2d8 bc3f
00000250: c179 683f 9dba 9f3f 13f3 833f eea6 3f3f
00000260: 1018 923f 52c8 723f 73a7 7d3f d114 3a3f
00000270: 1e90 3a3f 708a a73f c140 943f 1a8b b33f
00000280: 206e 543f 2486 af3f 3ab0 e13f 56b4 b73f
00000290: d98f ab3f 8212 923f a542 2cbf 1501 833f
000002a0: 0edb 9f3f 8537 9b3f 3007 4b3f fd53 463f
000002b0: 24a6 833f 8a53 8c3f 16e0 a43f fdbf 603f
000002c0: 6a83 503f a78f a03f feb5 853f 12d6 023f
000002d0: 0b8a 463f 4e5f 593f a068 493f a525 393f
000002e0: b498 383f e785 473f 576d 503f 45f9 563f
000002f0: a0fb 2d3f b493 193f c305 443f 52ee 233f
00000300: ed4d a73f 5e1d 563f 87eb 373f 916d d63f
00000310: 069a 763f bf4d 7e3f 769e a43f 660d 693f
00000320: 07ac 633f 5458 8f3f fdaf 883f d8b3 473f
00000330: 04b1 653f 2e49 a23f 5aec 8f3f 5849 8f3f
00000340: 1301 843f 5381 453f 625d 8e3f 4d17 613f
00000350: 4765 a23f af4e 743f d7fa a43f c8b0 823f
00000360: f5cc 593f a480 203f c82a 623f ec33 3c3f
00000370: d2e4 8f3f c637 7d3f fe88 563f ee0b 603f
00000380: 3fee 953f 7dad a93f ac4f 8e3f 7e68 673f
00000390: 2b80 813f 7a21 973f 59c7 193f 6957 673f
000003a0: f684 b43f 3c13 7d3f a4b3 7e3f 44c9 4b3f
000003b0: d23b 6e3f 0b59 693f b203 6f3f 9bbf 413f
000003c0: e74b 35bf e702 203f 60a6 323f 7991 f13e
000003d0: f292 2abf 30ed 603f 6851 903f ca4a 813f
000003e0: f9c0 5f3f c79a 7a3f 0488 4e3f 4c78 b03f
000003f0: 6f2f 643f 7dfb 3c3f 2767 113f e123 843f
0.45414075 1.0319349 0.7813762 1.0433084 1.1861626 0.587272 1.1243151 0.675225
1.1263622 0.6267482 1.0198576 0.8739087 0.74756193 0.6413151 1.0897398 1.3322166
1.1331363 0.68599474 1.0846634 1.2036239 1.3248694 0.6439177 0.701313 0.7578919
1.1466541 1.1509438 0.80350757 0.92735904 0.86010784 0.76565 0.7489961 0.7075536
0.69750524 1.387145 0.79174393 0.9236418 1.0965682 1.1318712 1.2596723 0.6437099
1.0673503 1.1310447 0.5227495 0.6124535 0.87996346 0.9558703 1.0229025 1.1447548
1.0060278 1.3612225 1.1350088 1.1600547 0.5859874 1.0867833 1.3826058 0.86782867
1.0014377 1.658541 0.86157507 1.2249548 1.4247115 0.73582673 0.79434407 1.1724691
0.7501331 1.4184467 1.1678679 1.0037341 0.59312505 0.98096514 1.0313183 0.66415584
1.1617453 0.87227076 0.86639667 1.0050594 0.65348667 1.1635458 1.2053812 0.9717278
1.2577357 0.5705709 0.94774634 1.0693388 0.97183067 0.65315497 1.0042621 0.8788745
1.0272455 1.0126699 1.0881485 0.83772546 0.604173 1.0131266 0.8269631 1.3000911
1.3451617 0.78336245 0.71709895 0.7497176 0.9618791 0.6812605 0.693442 0.8505689
0.85681623 1.4244115 1.028786 1.2689881 1.341432 0.86570543 0.6317477 0.7983629
1.520714 -0.69401354 1.1174115 1.0241572 1.1752651 1.2931699 0.5423965 1.1489308
0.61367625 0.87730753 0.8700805 0.6689423 0.81572413 1.1478295 1.2015289 0.56092995
-0.70599294 1.0316453 1.0776081 0.9410511 0.8798352 0.92393464 0.77523935 0.9489485
0.7958599 0.8821445 1.2373312 0.7853191 0.49605742 0.6765516 0.67053235 1.0677592
1.2659929 0.89055675 0.751242 1.475363 0.9081078 1.2478825 1.0308555 0.7486409
1.1413593 0.94836915 0.9908363 0.72688013 0.72876155 1.3089123 1.1582261 1.4026825
0.8298054 1.3712811 1.7631905 1.4351909 1.3403274 1.1411898 -0.6728919 1.0234705
1.2488725 1.2126318 0.7930784 0.77471906 1.0285077 1.0962994 1.2880886 0.8779295
0.8145052 1.2543839 1.0446165 0.51107895 0.77554387 0.8491105 0.7867527 0.72323066
0.72108006 0.77938694 0.8141684 0.83974105 0.67962074 0.59991 0.7657129 0.6403552
1.3070656 0.8363856 0.7184376 1.6752187 0.9632877 0.9933738 1.2860858 0.9103607
0.8893437 1.1198831 1.0678707 0.78008795 0.8972323 1.2678583 1.1244004 1.1194258
1.0312828 0.7715046 1.1122248 0.8792618 1.2687157 0.9543256 1.288905 1.0210199
0.85078365 0.6269629 0.8834653 0.73516726 1.1241705 0.9891323 0.83802783 0.87518203
1.1713332 1.325607 1.1118064 0.9039382 1.0117239 1.1807091 0.60069805 0.9036775
1.4103076 0.98857474 0.9949286 0.7960398 0.9306003 0.91151494 0.93365014 0.7568299
-0.7081894 0.6250443 0.6978512 0.471813 -0.6663047 0.8786192 1.1274843 1.0100949
0.8740383 0.9789242 0.80676293 1.3786712 0.8913488 0.7382124 0.56798023 1.0323449

bn1.bias f4 [256]
00000000: 5caa a13d 3fe1 043e cd39 d33c 3abf b83c
00000010: 5822 483d 8632 58bd bee8 a53c c8e5 bd3d
00000020: 56fc 2d3e b056 2f3d 0b39 b13d 1899 7b3e
00000030: 93ed cabe 7eb6 1a3f 0875 343d d889 dbbc
00000040: f93c 6d3e 4316 16be ac10 6cbe f734 163e
00000050: 3e19 b7bc 8442 623e e56d 32bd 1a15 e8bd
00000060: a8db 3cbd 99cc b53e 0d5c b23b ba25 bdbc
00000070: ea5c 923d 295a 2b3d 9aac ad3d 22ad 90bd
00000080: 573f 583d 6e8b 833e b71d 763e 42dd 0c3e
00000090: bd84 b23c 5a45 a63e f136 5d3e deb0 063d
000000a0: 4478 383e ce04 9ab9 13f4 99be db1d 0abd
000000b0: cc4b 423e 3911 2c3e a064 78bd 73f9 69bd
000000c0: 863e c53c bb66 fa3d 8f18 413d 1cfb 473e
000000d0: 21cc 9e3f 061a b93c 1397 023e 4a3f fd3e
000000e0: a822 3f3b 78e3 853e c4e8 a7bd ee44 423e
000000f0: 6738 163e 9114 3a3d a1f3 233e 680f 103e
00000100: 4d23 4dbc ffb3 ab3e 9fbd d1bd 8f6c 86be
00000110: f6f1 4fbe 1d61 fabd 2929 053e c9b1 d73d
00000120: 2866 1a3e d286 07bd 7e12 b23d 7a82 88bd
00000130: 70c0 45be 8d26 ae3d 8e62 993e 9ad5 b23d
00000140: 5131 7fbe 6950 3d3e 5377 033e 9d26 263e
00000150: cbd6 f43b 8819 983b 7555 a83d 807d 223e
00000160: 2d9b 14bd 8a7e 8f3d 87ac 563d 9a30 50be
00000170: fa89 32be 063f a33e 3344 0c3e 780a 373e
00000180: 9c15 25bd 7473 b9bd aff7 b9bd 37ac 703e
00000190: 7bed 263e 63b3 b23e 0576 013e 8518 12bd
000001a0: 98eb 45bd a1c9 813c beed d73b 0d03 84be
000001b0: 35f1 5f3d 3c28 62be 683a a93c 4f53 a63d
000001c0: c3eb af3d 7073 b53e 3817 b7bd c364 193d
000001d0: fdac 3e3e ac98 953e f331 1abe 755c 803b
000001e0: 7d7e a43e 40da f6bb 7831 6f3d ba0b 543c
000001f0: 81bb 893c edff 513e f217 d83d 1e04 c43d
00000200: e584 26bf 5a13 313e 13ae 9e3d 0df3 e2bd
00000210: 7369 943c 02c8 84bd a3ea 81bd 1340 753d
00000220: 7b18 5c3e eb46 f33d 4a27 9e3d 1b11 d13d
00000230: 17b8 69be abd0 26be 65e8 043d c625 7f3e
00000240: cd97 73bd 0782 eabd 4cb1 013e 798b fcbd
00000250: 4cc9 b3bc b182 8f3d 991a 0fbe 51f4 3fbc
00000260: 9f58 cfbe 0d31 d4bd a25e 723d 0ea4 5fbd
00000270: e38e 1a3e b8de b63e f020 26be ce95 3f3e
00000280: d0e3 0ebe d4e4 20bd e138 18bd ae34 333e
00000290: c984 b93d 1020 703e b1aa 99be 0899 d63e
000002a0: 0761 0c3d 375f 8d3c d4c2 363e 1f06 4dbd
000002b0: 7df1 df3d 2fbc 853e 16f8 0fbd 7537 9fbd
000002c0: 9c6f a63b 5e70 7dbe 4a1d 29be 8ae8 983e
000002d0: bf35 c73d 9659 e83d 3870 95bd e03a 413e
000002e0: a3be b3ba 2139 02be a627 fabb a7e5 b43d
000002f0: c74c 0fbf 844b 73be e6c9 be3e a761 1f3d
00000300: 12f1 ac3e 7463 ca3c 7c36 4c3d f473 6b3e
00000310: 0806 a93c c7a6 bc3e 2914 ac3d d004 e73c
00000320: 5031 c13c 71de 723e 16c0 0e3d b240 ca3d
00000330: edc0 3dbd 33ac 4abe 968a 9f3d 761a 763e
00000340: e432 cfbd 5a15 753d 80ae 063e be9d 2cbe
00000350: 88d6 e53b 84bb 3f3d 1bdd 07bd b13c 233e
00000360: 2ed9 b33e cf64 d6bd 63a9 0e3e 72fe 633d
00000370: c607 9e3e 9968 553e 5941 0d3e 19aa b7bd
00000380: 4025 a73c 8ddb f23d d2b6 41be f52f 64bd
00000390: 1b55 e33d 4c60 753e 054e 393e 7f50 9e3d
000003a0: 0a43 f63d 145c 913d 75bc 2abd 8852 3bbc
000003b0: ebb9 5f3e c4af 3b3e dff4 8ebe 49c9 8d3d
000003c0: b359 43be 71b1 91be def0 9d3b c3ba 4c3e
000003d0: 689e 29be 6f7d 263d a9cd 26be ae99 ad3c
000003e0: d1c0 633e 756f 7b3a 0cb4 36be ebe9 9fbc
000003f0: 0be3 263e ddbd fabd c975 c33c b341 f73a
0.078938216 0.1297655 0.025784397 0.022552121 0.048860878 -0.052782558 0.020252582 0.09272343
0.1699079 0.04280728 0.08653458 0.2457012 -0.3963438 0.6043471 0.044056922 -0.026799127
0.2316779 -0.1465693 -0.23053235 0.14668642 -0.022350904 0.22095686 -0.043561835 -0.1133215
-0.046107918 0.35507658 0.005443102 -0.023089278 0.07146628 0.04183403 0.08480187 -0.070642725
0.05279478 0.25692314 0.24034773 0.13756278 0.02179181 0.32474786 0.2160299 0.032883517
0.18014628 -0.0002937675 -0.30069026 -0.03371988 0.18974227 0.16803445 -0.06064284 -0.05712266
0.024077665 0.122266255 0.04714256 0.19529384 1.2406045 0.022595417 0.12752943 0.49462348
0.0029164944 0.26150107 -0.081986934 0.18971607 0.14669953 0.04542977 0.16010906 0.14068377
-0.012520623 0.33535764 -0.102412455 -0.262547 -0.20307145 -0.12225554 0.13003983 0.10531957
0.15078032 -0.03308756 0.08694933 -0.066655114 -0.1931169 0.08503447 0.29958004 0.087321475
-0.24921156 0.18487705 0.12838487 0.16225667 0.0074718944 0.0046417154 0.08219425 0.15868187
-0.0362808 0.07006557 0.05241063 -0.2033104 -0.17435446 0.3188402 0.13697891 0.17875087
-0.04030381 -0.09055224 -0.09080445 0.23503195 0.16301529 0.34902486 0.12642677 -0.035667915
-0.048320383 0.015843214 0.0065896204 -0.25783578 0.054673392 -0.2208566 0.020657733 0.081213586
0.0858989 0.35439634 -0.089399755 0.03744961 0.18620677 0.29218042 -0.15058117 0.0039172717
0.32127753 -0.0075333416 0.058396786 0.012942249 0.016813042 0.20507784 0.10551442 0.09571098
-0.6504653 0.17292538 0.07748046 -0.110815145 0.018116688 -0.06483461 -0.063435815 0.05987556
0.21493714 0.11878761 0.077223375 0.10208341 -0.22824131 -0.16290538 0.03244819 0.24916753
-0.05947094 -0.11450582 0.1266529 -0.1233129 -0.021946572 0.07007349 -0.1397499 -0.011715964
-0.404973 -0.10360918 0.05917228 -0.054599814 0.1509357 0.35716796 -0.16223502 0.1870949
-0.13954091 -0.039280728 -0.03716362 0.17500564 0.0905853 0.23449731 -0.3001304 0.4191363
0.03427222 0.017257316 0.17847759 -0.050054666 0.10934732 0.26120135 -0.035148703 -0.077742495
0.005079223 -0.24749896 -0.16515079 0.29864913 0.09727048 0.11345212 -0.07296795 0.18870115
-0.001371343 -0.12717105 -0.007634121 0.08832865 -0.5597653 -0.23759276 0.3726341 0.038911488
0.33777672 0.024705626 0.049856648 0.22993451 0.020632759 0.3684599 0.08402283 0.028200537
0.023583084 0.23717667 0.034851156 0.09875621 -0.046326566 -0.19792251 0.07790105 0.24033532
-0.101171285 0.059834816 0.13152504 -0.16857049 0.0070140995 0.04680969 -0.033169847 0.1594112
0.35126632 -0.104684465 0.13931803 0.05566258 0.30865306 0.20840682 0.1379446 -0.089679904
0.020403504 0.11858282 -0.18917397 -0.055709798 0.11100217 0.23962516 0.18096168 0.07730197
0.120245054 0.07097641 -0.041683633 -0.011433251 0.21848266 0.18328768 -0.27921197 0.06923158
-0.19077186 -0.2845569 0.0048199734 0.19993119 -0.16564333 0.040646967 -0.1628939 0.021191444
0.22241522 0.00095914985 -0.1784212 -0.01952072 0.16297548 -0.12243245 0.023859875 0.0018864184

bn1.running_mean f4 [256]
00000000: 2498 d33d 5a20 0e3e e231 0a3e 0a53 843e
00000010: 022d 603e b65c 963d bab9 983d 63e1 c13d
00000020: eecd 843e d275 d63e eed5 5c3e b4e3 823d
00000030: 6eab 153e e22e 1b3f d445 253f 161b 9b3f
00000040: 6b5e c63d e140 c53e 0111 983d e93f 0a3f
00000050: 5320 db3e 09de 213f 0f23 123e 396e 953e
00000060: cfc8 593e 76d0 643e 914d 633e 26dd 623e
00000070: 9e81 0a3f e6bc 453e 9ef4 883d 2537 af3d
00000080: e339 f83d d096 883d 0f34 d23d d02f 453e
00000090: 4b41 373e 6121 003e ee5d f33e 435b 133e
000000a0: 8bf8 353e 52c3 053f 3e4f bd3d c285 ed3e
000000b0: 69f8 cf3e c60f 393e a740 cd3d e4cd df3e
000000c0: e489 743f 7998 2c3f f1ae ee3e 98d2 b03e
000000d0: a2ed a03f 0e92 0e3e 1c67 3a3e 6364 0c3e
000000e0: 245a b03e 2cc3 803e b3f7 163e 0de9 973d
000000f0: 8f14 6d3e c845 173e 2f19 133e 5b4d 3a3e
00000100: 39c7 1a3e 935f 0c3e c4da d33d 9061 0a3e
00000110: f355 c03e ad94 533e 1cdc 493e 1a68 423f
00000120: 945a fe3d 9ac6 933e 6e2c 293e f921 1d3e
00000130: 9e7f fb3d a20a ab3e 06ef 273e 1276 033e
00000140: a46a 133d ad00 073e 3f76 af3d a52a c33d
00000150: 6a84 683d a1e2 d43f f54b 353e 7441 d83e
00000160: 9744 8f3e c667 543e e797 403e 9b57 6a3d
00000170: a927 6f3e 0f1e ee3d 3f77 8f3e 529e d23e
00000180: 1272 7b3e 699c 0a3f df6c ed3e cb2b 863d
00000190: efe4 933e 9bc7 9c3e 9a50 e43d 50ec e43d
000001a0: bbb1 083e dfa7 083e 50f4 153f c019 573e
000001b0: cc36 cc3d cca9 233e 40c8 1e3e 48a5 df3d
000001c0: 7a80 c73e 0abd 843e f0be 173f e031 303f
000001d0: 5fee 6f3e 0adf da3d a12a c83c 634c 8d3d
000001e0: 1632 d13e 8a83 7c3e 23b8 4b3e 98c1 bd3e
000001f0: de8e b03e b2a8 4c3e 1ed5 2f3e d4d6 083e
00000200: 9a12 033f 905d 0c3e ff72 253e 250a e63d
00000210: aed3 583d a8ee 683e 042c 653e 2cf9 673e
00000220: fab1 413e 1fa7 7b3d 632d 283e 11ef 9d3e
00000230: e881 2b3f c57f 9f3d 7eef 733d 473a 803e
00000240: e564 c33e f792 803e df36 2d3e 5fd7 453e
00000250: 2007 413e bf5f 0e3e d4e4 883e 2f29 903e
00000260: 0e81 013e 6af1 cd3d 8d92 d03e 20a7 4c3e
00000270: 924b 1f3e bf01 f73d 4999 d03d e278 1a3f
00000280: 5487 e93e fe8c e53e b23b 2e3e d8bc b23d
00000290: 7194 613e 819c 923e f69e 9d3e eabe 173e
000002a0: 69fc 3b3e d9a0 3f3f f257 d03d b96c 513e
000002b0: d95c 9e3e 561c 823e 9c23 1a3e 9e78 793e
000002c0: 1e70 4c3e 2143 f33d c81f be3e 1a75 d03e
000002d0: 0ca6 813e 104b 323e 2dfc 153f 24d3 f63d
000002e0: d3db a73e ead9 a03d db2a f43d 8dfd 963d
000002f0: 2ce4 b03f 7cae 163f 7472 083e 8402 683e
00000300: 0388 913f d6bd 833e 8900 733e 2599 3d3e
00000310: 6b09 843e 3403 153e cec7 523e ac90 9b3e
00000320: 8607 123e 97d8 163e 3d3c b13e 2cc0 a13e
00000330: d500 f43e 5bb5 233e f087 c83e 6edf 1f3f
00000340: 908d d23e 11cc f63e c8d7 ec3e 7d89 ce3e
00000350: 8893 b33e 395a d43e 12a3 783e 2274 883e
00000360: 0af9 263e d2f8 c33e 6f1f 0c3f 175a 1b3f
00000370: 37d5 ac3e 241a 433e 7a6c 963d 2f8e e13d
00000380: db66 893e ddea 883e 2e4d cc3e 6d76 5d3e
00000390: 6b67 f83d 9389 883f 445d 653e 9daf 7e3e
000003a0: 5ac5 783f ed6f 413e e2e1 4c3e ba6d 853e
000003b0: 5875 e73d f3a0 1d3f d00d 603e 6ea2 483d
000003c0: 4f95 143f 34b2 3d3e e0b6 f13d ee8f 893e
000003d0: e3a1 883d 9128 f63e 5a0a 9c3d cea2 863e
000003e0: 11ad 3f3e 178f 7b3d 02c1 053e 386d 1a3e
000003f0: a3c9 fa3d a6bc 2e3e 1579 343f 3fd5 5b3e
0.10331753 0.13879529 0.13495591 0.25844604 0.21892169 0.07341902 0.074572995 0.09466817
0.25938362 0.41886765 0.21565983 0.06391087 0.14616176 0.6061841 0.64559674 1.2117641
0.096859775 0.3852606 0.07425118 0.5400377 0.427981 0.63229424 0.14271186 0.29185656
0.21268009 0.22345147 0.22197558 0.22154674 0.5410403 0.1931034 0.06687282 0.0855544
0.12120416 0.0666939 0.10263836 0.1925652 0.17896001 0.12512733 0.475326 0.14390282
0.17770593 0.5225116 0.0924363 0.46391112 0.4061921 0.18072423 0.10022097 0.4371177
0.95522904 0.67420155 0.46617845 0.3453567 1.257252 0.13922903 0.18203396 0.1371017
0.34443772 0.25148904 0.14742927 0.07417498 0.23152374 0.14772713 0.14365076 0.18193571
0.1511506 0.13708334 0.103444606 0.1351378 0.37565574 0.20662184 0.19712871 0.75940096
0.1241962 0.28862458 0.16520855 0.15344991 0.122802004 0.3340655 0.16399774 0.12838009
0.035990372 0.13183852 0.085674755 0.09529618 0.056766905 1.6631662 0.17704757 0.42237437
0.27982017 0.20742711 0.18807946 0.057212453 0.23354973 0.11626827 0.28020665 0.41136414
0.24555233 0.5414491 0.46372125 0.065513216 0.288856 0.30621037 0.11148186 0.111778855
0.13349049 0.13345288 0.58575916 0.21005917 0.09971389 0.15982741 0.15506077 0.10920197
0.38965207 0.25925475 0.5927572 0.68826103 0.23430775 0.106870726 0.02443439 0.06899335
0.40858525 0.24659553 0.19894461 0.37061763 0.34484 0.19986227 0.17171142 0.133632
0.5120026 0.13707566 0.16157149 0.11232404 0.05293625 0.2274729 0.22380072 0.22653645
0.18915549 0.061438676 0.16423564 0.30846456 0.66995096 0.07788042 0.05955457 0.25044462
0.38162914 0.25112125 0.16915463 0.19320439 0.18850374 0.13903712 0.26737082 0.2815642
0.12646887 0.10055812 0.4073681 0.19985628 0.15556172 0.1206088 0.10185487 0.603407
0.4561106 0.4483413 0.1701496 0.08727425 0.22029282 0.28635028 0.3078534 0.14818922
0.18358006 0.7485481 0.10173024 0.2045163 0.30930212 0.25412244 0.15052646 0.24362418
0.19964644 0.11878038 0.37133622 0.4071434 0.25321996 0.17411447 0.58587915 0.12051991
0.327849 0.07854064 0.119222365 0.0737258 1.3819633 0.5885999 0.1332491 0.2265721
1.1369632 0.2573077 0.23730673 0.18515451 0.25788435 0.14552003 0.20584032 0.30383813
0.14260682 0.1473106 0.3461627 0.31591928 0.47656885 0.1598715 0.39166212 0.624503
0.4112363 0.48202565 0.46258378 0.4033927 0.35073495 0.41475084 0.24280956 0.26651102
0.16305938 0.38275772 0.54735464 0.6068434 0.3375642 0.1905294 0.07344909 0.110134475
0.26836285 0.26741686 0.39902633 0.21627207 0.121291004 1.0666984 0.2239886 0.24871679
0.97176135 0.18890353 0.20008042 0.26060277 0.113016784 0.61573714 0.21880269 0.04898303
0.58040327 0.1852501 0.11802459 0.26867622 0.066715024 0.48077825 0.07619162 0.26296085
0.18718363 0.061415758 0.13061908 0.15080726 0.122454904 0.17064151 0.70497257 0.21468066
