checkpoint_critic.pth (torch_old, 308949 bytes, 9 tensors)

fcs1.weight f4 [256, 33]
000000 8b 7b 0e 3d 5c f7 aa be c8 50 d2 3d 44 ab 2e bd
       0.03478579 -0.33391845 0.10269314 -0.0426438
000010 b0 b3 11 be e6 87 f2 3d 62 e4 97 3d 4c 6e 19 3d
       -0.14228702 0.11842327 0.074166074 0.037458703
000020 e4 f3 0b be 73 25 77 be 96 8c 25 be 38 ca 24 bd
       -0.13667256 -0.2413538 -0.1616691 -0.040231913
000030 45 d3 16 be 40 86 d4 bc e4 08 53 3e 21 e2 7c bc
       -0.1472903 -0.025942922 0.2060886 -0.015434773
000040 a3 08 9f be c7 6b 72 be 30 d8 66 3d 32 69 f4 3d
       -0.31061277 -0.23673926 0.056358516 0.11934127
000050 00 21 d5 bd a3 40 63 bd f5 2c 4c 3c 5b 99 92 bd
       -0.10406685 -0.055481564 0.0124618905 -0.071581565
000060 89 bb 1e be 2e c9 86 3d b8 1e 12 3d ec 95 82 bd
       -0.15501226 0.06581341 0.035673827 -0.063762516
000070 a3 98 4b 3c 72 70 2b bd c4 d0 e3 bb 7a f3 13 3d
       0.012426528 -0.041855283 -0.006952377 0.03612087
000080 c0 6c b0 be 29 d9 b9 3d 43 e8 b6 bd b8 ed 4f bd
       -0.3445797 0.09074623 -0.08931019 -0.050763816
000090 bd 1a e7 3d 71 93 dc bd 4c 2d f4 be 93 79 8d bd
       0.11284397 -0.1077031 -0.4769081 -0.06907954
0000a0 46 63 19 bd 5f b0 83 3d 2d 67 d5 3d a0 0a 8e bc
       -0.03744819 0.064301245 0.1042007 -0.01733905
0000b0 48 17 24 bd 12 91 05 bd 94 f3 c1 bd d6 58 0c 3d
       -0.040061265 -0.032609053 -0.09470287 0.034264408
0000c0 15 31 67 3d d0 39 ae 3e c8 0f 5a 3d cd fd cd bd
       0.056443293 0.34028482 0.053237706 -0.10058174
0000d0 a3 25 b0 3e 3f 2f 97 3c 95 33 4f 3c c3 5f 36 bd
       0.34403715 0.018455146 0.012646575 -0.04452492
0000e0 3e 5b d1 bd b5 72 91 3c 65 f6 14 bd a6 ae fe bc
       -0.10222481 0.017754892 -0.036367793 -0.031089138
0000f0 c7 25 29 3e 2a e8 6d bd cc 5d a4 3c 14 d9 25 be
       0.16518317 -0.058082737 0.020064257 -0.1619609
000100 c0 a5 7d 3d f1 c2 5a 3f c6 73 43 3e fc 72 20 be
       0.06192565 0.85453707 0.19087133 -0.15668863
000110 4e 9a 00 3e 7c 6a 32 3d 4e d6 8f 3e f1 81 a8 3e
       0.12558863 0.043558583 0.2809319 0.32911637
000120 7f 29 8f be 45 66 43 3d 74 17 dc bd f1 e3 71 3e
       -0.27961347 0.047704954 -0.10746661 0.23622109
000130 ba b3 45 3e e6 b7 9a bd 4d 3a 65 3d 44 1c 1f be
       0.19306841 -0.07554607 0.055963803 -0.15538126
000140 9a 85 07 3e 5b cd 2b bd d0 db 80 3e 6b b0 4e 3b
       0.13234559 -0.04194389 0.25167704 0.0031538259
000150 d3 1c 69 be 61 85 80 3e c0 d2 49 3d 9e b5 67 bb
       -0.22764902 0.2510176 0.049273252 -0.0035356055
000160 71 7a 02 bc 1b 1a 8c 3d 68 bf 18 be 11 c4 4b bd
       -0.007963763 0.06840917 -0.14916766 -0.04974753
000170 b3 68 1b 3d f1 bc 28 bc 82 29 75 bd 8c 9b df bc
       0.037941646 -0.010298953 -0.059854038 -0.02729585
000180 fc 59 f0 bc fe 61 54 bd 11 74 1c be 05 75 21 3e
       -0.029339783 -0.051851265 -0.15278651 0.15767296
000190 21 21 c7 3d 8b 16 16 3d 3d 28 17 3e 24 40 6d be
       0.09723116 0.036642592 0.14761443 -0.23168999
0001a0 0e eb 85 3e 71 75 cc bd 4a a5 10 bd 31 d7 5e bb
       0.26155895 -0.09983338 -0.035313882 -0.0034002776
0001b0 7a 25 df bd 21 3f a7 bd ff 10 87 3e 2b d1 84 bd
       -0.1089582 -0.08166338 0.26380154 -0.06485208
0001c0 30 28 18 be 04 8a 8d bd 38 5f 5e 3d a5 e0 1c 3e
       -0.1485908 -0.0691109 0.054290026 0.1532007
0001d0 96 d3 f9 3d b4 9b b0 be b5 cc 11 bd c7 27 5e bd
       0.1219856 -0.34493792 -0.035595614 -0.054237153
0001e0 7e 6b bc 3d 89 86 ac bd 88 27 8c 3b 09 0b 6c be
       0.0920019 -0.08424098 0.0042771734 -0.23051085
0001f0 6b 8d f6 3a 5d b4 9e 3d 17 87 52 3e ea a8 c6 bb
       0.0018810456 0.07749245 0.20559345 -0.0060626166
000200 00 bf 1e ba 8b c0 4f be c0 03 9b bb c6 82 5b 3e
       -0.0006055683 -0.20288293 -0.0047306716 0.21436605
000210 62 12 f4 bb f6 d8 6e be 2e 19 6d bc 38 b2 13 bf
       -0.0074484805 -0.23324952 -0.014471335 -0.57693815
000220 30 8c 88 3c 7f ad cc be f4 e2 82 bd 60 18 9f bd
       0.01666841 -0.39976117 -0.06390944 -0.07768321
000230 8f ba 38 3e c6 a5 70 be 70 e4 e1 bc eb dc 08 bc
       0.18039916 -0.23500738 -0.027574748 -0.008353452
000240 fa 8f dc bb c5 3f 82 bd 58 d2 89 3d 4e ad e9 bb
       -0.0067310305 -0.06359819 0.06729573 -0.007131255
000250 ff 65 e4 3d 2f 18 42 3e 78 7d e4 bd 85 fd 2c bd
       0.11152267 0.18954538 -0.11156744 -0.042233963
000260 8a 69 30 bd f6 bc 80 3c 7c af e8 3d e3 1b b9 bd
       -0.0430694 0.015715104 0.11361596 -0.09038522
000270 5a 23 51 bd 0e f6 8e 3c 0a 32 f5 bd c5 92 76 3e
       -0.051059105 0.017451312 -0.11972435 0.24079426
000280 26 9e 33 bc 8c a9 67 3d e9 20 94 be 80 a2 8c 3c
       -0.0109629985 0.056558177 -0.28931358 0.01716733
000290 78 f2 c3 be 5e 44 05 be 26 02 96 3d 44 67 a8 bd
       -0.38270926 -0.13014361 0.073246285 -0.08222821
0002a0 f3 80 08 3e 0f 2d 80 3e 31 60 9c 3e 57 51 0c 3e
       0.1333044 0.25034377 0.30542138 0.13702904
0002b0 05 07 d0 39 c0 2b c7 be 81 4b 63 be a5 74 fb 3d
       0.00039678082 -0.38900566 -0.22196771 0.122781076
0002c0 55 99 10 3d 63 4b e0 3d e8 c8 a9 3d b2 81 05 3d
       0.03530248 0.10951879 0.08290273 0.03259439
0002d0 a8 d5 35 3e 00 49 86 3e ec 6f 5a 3d 83 29 7d ba
       0.17757285 0.2622757 0.053329393 -0.000965737
0002e0 24 d5 0b 3f b3 fa c9 bd 1a 64 28 be e2 df e8 3c
       0.546221 -0.0986227 -0.16444436 0.028427068
0002f0 9a 20 2d 3d ac ab 38 3d bf b5 0d 3d 24 10 7f 3d
       0.04226742 0.045085594 0.034597155 0.062271252
000300 1d 2e 5b 3e c9 46 ac bd 00 27 aa b9 8b d0 5b be
       0.2140431 -0.08411939 -0.00032453984 -0.21466272
000310 a4 e9 c9 3c eb 14 62 3e 7c 73 0a 3d ac a1 c7 bd
       0.024647541 0.22078292 0.03380154 -0.09747633
000320 59 fd c7 bc fe ea 31 be 50 df 6e 3d 3b 46 9d 3e
       -0.024412798 -0.17374799 0.058318436 0.30717644
000330 10 af f9 3d 91 4e cb bc ec d9 67 be 5b 50 28 bd
       0.12191594 -0.024817737 -0.22641724 -0.041092258
000340 52 0a 77 bc c4 88 89 3c 1e c9 90 bd c0 da 94 3d
       -0.015078144 0.016788848 -0.0706961 0.07268286
000350 93 b7 0f 3d 9f 78 76 3d fa 90 24 bf c7 e7 07 be
       0.03508718 0.060173627 -0.64283717 -0.1327201
000360 5e b1 1a 3f 02 de 38 bd 26 83 96 bd cf 88 9a 3c
       0.6042689 -0.0451336 -0.07349233 0.018864064
000370 97 3c 31 bc 3a 56 bc 3d 22 51 45 3c 04 65 0d 3d
       -0.010817668 0.09196134 0.012043269 0.034520164
000380 a2 7a 49 3c 04 c2 2c 3e 1e d2 ca bd 80 e3 b4 3a
       0.012297304 0.16870886 -0.09903358 0.001380071
000390 30 45 86 be 40 1c f9 3b 6b ee 11 3f 95 9a 92 3d
       -0.2622466 0.0076022446 0.5700442 0.071583904
0003a0 4e 32 44 3e d4 2f 16 be 27 c5 b4 be 6a ff a4 3e
       0.19159815 -0.14666682 -0.35306665 0.32226115
0003b0 88 e4 1a 3d 43 f7 7d 3d 2a 1c cb 3d 54 c4 2d bd
       0.0378156 0.062003385 0.09917481 -0.04242356
0003c0 c2 be 25 3e a2 b5 04 bd 0a fc 8c 3d fe 67 ee bc
       0.1618605 -0.03239978 0.0688401 -0.029102322
0003d0 25 2b ae bb 11 43 84 bd c7 53 80 3e 4d 85 97 be
       -0.005315202 -0.064581044 0.25063917 -0.29593888
0003e0 c1 a9 b7 3d a0 43 a7 3c 97 1e b1 3c cc 29 18 3c
       0.08967925 0.020417988 0.021621032 0.009287309
0003f0 9e 9d 0c bd 6a 02 89 bd 47 86 27 bd d7 66 47 3d
       -0.034330003 -0.066899136 -0.04089954 0.04868206

fcs1.bias f4 [256]
000000 8c 25 9c bc 68 3d b2 be 9b e5 b7 bc cf 45 11 be
       -0.019060872 -0.34812474 -0.022448352 -0.14186786
000010 2a 1c 4a be 4e f0 ae bd df 75 9f be 78 f1 ff bc
       -0.19737306 -0.08541928 -0.31144616 -0.031243071
000020 b2 50 99 be 37 72 1b 3c c9 66 2f 3e 67 ec 82 be
       -0.29944378 0.00948768 0.17129053 -0.25570986
000030 45 e7 e0 3d 81 d8 6b be 2b 1f e4 bd 21 38 67 bd
       0.10981611 -0.23031808 -0.11138757 -0.056450013
000040 3e 24 5d bc 28 32 8f be ff 8a ef bd c7 29 b2 be
       -0.01349741 -0.27967954 -0.11696433 -0.347975
000050 6b d7 82 be 26 ed b3 be ab 53 7b bd 0d e6 07 bd
       -0.25554976 -0.35141867 -0.06135909 -0.033178378
000060 27 59 cc bd 66 be 6f be 58 8b 85 be 11 6c 77 3d
       -0.09977942 -0.23412475 -0.26082873 0.060405795
000070 9c 3a b4 be bd 65 80 be f4 46 96 be a3 18 cd be
       -0.35200965 -0.2507762 -0.29351008 -0.4005786
000080 82 bd 84 be 7c 04 7f be ca 54 7c be 1d 49 a0 bd
       -0.25925833 -0.24904054 -0.2464172 -0.07826445
000090 24 15 96 3e cb 3d ad be 27 ca 46 bd 19 83 19 be
       0.29313004 -0.33836207 -0.04853263 -0.14991416
0000a0 f0 cf 21 be f3 b0 2b 3d 11 ac 1b 3e 6f 0d af bd
       -0.15801978 0.0419168 0.15202357 -0.08547484
0000b0 4d 55 64 3b 8e f5 6a 3b fb 15 d6 bd 07 d2 af bd
       0.0034840882 0.0035851928 -0.10453411 -0.085849814
0000c0 0b 24 83 be 3a 78 e4 bd 72 3d 3f be ae 4b ad be
       -0.25613436 -0.11155744 -0.18675783 -0.33846802
0000d0 54 62 3b be 50 5c b9 3c 31 81 ce be c0 be a8 bd
       -0.18299228 0.022627026 -0.4033294 -0.08239508
0000e0 90 96 69 be e7 d3 75 3c f9 fb 0d be fa 6a 89 be
       -0.22811341 0.015004135 -0.13865651 -0.2683943
0000f0 1b 76 28 bd e2 86 4a be a7 b8 ce be 9e 37 16 be
       -0.04112826 -0.19778016 -0.40375254 -0.14669654
000100 48 8c 15 bd c6 e6 a3 be 4d eb 16 3e 18 cc 23 be
       -0.036510736 -0.32012004 0.14738198 -0.15995824
000110 0a c0 60 be 8c 3b a1 be fe 24 0d bd 6c 3d 08 3e
       -0.21948257 -0.31490743 -0.034459107 0.1330468
000120 c6 3a a5 bd 18 0e 86 bd bb b5 39 3c ee 54 12 be
       -0.08067851 -0.06545657 0.011334832 -0.1429021
000130 8b 51 8d 39 ba 30 12 be 4f ab 25 be 36 45 3f be
       0.0002695437 -0.142764 -0.1617863 -0.18678746
000140 0b 66 9f bd ef 75 56 be 78 8c 20 be a2 7b bb 3d
       -0.07783135 -0.20943426 -0.15678585 0.091544405
000150 ed 2f bb bd 71 6c 06 be 02 16 f9 bd 34 43 40 be
       -0.091400005 -0.13127305 -0.12162401 -0.18775636
000160 a4 14 8d be 18 58 bd be 61 b6 54 be 2f ea 83 be
       -0.2755481 -0.36981273 -0.20772697 -0.25764605
000170 de c3 4d be ec 1f 21 be ca 8c 10 be 48 6d d1 3c
       -0.20094249 -0.15734833 -0.14116207 0.025564805
000180 6b cd 2a be f7 3e 94 be 43 5d 83 3d 6e ef 9a be
       -0.16679923 -0.28954288 0.06414273 -0.30260795
000190 5f c3 d2 bd ec 05 8b bd 6d f4 a5 be d8 78 90 be
       -0.1029117 -0.06788239 -0.32413045 -0.28217196
0001a0 4a 56 c1 be 61 ac e8 be 19 f1 62 3e a3 24 4e 3c
       -0.37761146 -0.45444015 0.22162284 0.012581977
0001b0 5b f8 cd bc 1e 6c 4f 3e 3e 15 92 be 8b d9 4e be
       -0.02514284 0.20256087 -0.28531832 -0.20200174
0001c0 45 1f df be 6a e3 87 be c4 93 94 3c d6 5c 02 3c
       -0.43578544 -0.2654069 0.018136866 0.007956704
0001d0 c9 77 a7 be b9 1b 48 be 98 6a a9 be 04 a1 1d be
       -0.32708576 -0.19541825 -0.33089137 -0.15393454
0001e0 2f b7 93 be 57 36 31 be 2b e8 dc be bd 9f 66 be
       -0.28850695 -0.17305885 -0.4314588 -0.22521873
0001f0 81 45 98 bd 4a c6 0f be a9 4e 2b be 4a 99 40 3d
       -0.07435132 -0.14040485 -0.16729225 0.047021188
000200 7a ca be bd 23 75 c7 be c7 c8 f6 3d 7f a7 88 bd
       -0.09315963 -0.38956556 0.12050014 -0.06672572
000210 97 04 b0 3d e3 89 9f be c5 8d ca be af f8 27 bd
       0.085946254 -0.31159887 -0.39561287 -0.041008648
000220 03 75 08 be 4f b8 14 3e 3a e4 b6 be 67 47 5d be
       -0.13325886 0.14523433 -0.35720998 -0.21609269
000230 56 c6 bc be ce ea f7 be 03 59 9f bd 04 54 93 3d
       -0.36870068 -0.4842133 -0.077806495 0.07193759
000240 d4 c8 03 be 9a bd 9c bd 4f eb 57 be 4e ef 5e be
       -0.12869579 -0.07653351 -0.21085857 -0.21770975
000250 42 97 df bd 80 0e a1 be 04 1d e8 bd 84 1e 96 be
       -0.10917522 -0.31456375 -0.11333659 -0.29320157
000260 d8 cc 0c bd 46 ff 80 bd dc c3 d4 bd 1f 50 a1 be
       -0.03437504 -0.062986895 -0.1038892 -0.3150644
000270 50 16 15 be 3b fc 57 be cb b4 e2 bb 4f 9e 88 3c
       -0.14559293 -0.21092312 -0.006918525 0.01667705
000280 fd 71 18 be cb 7c 94 be 0f 79 8a bd e0 0a 80 be
       -0.14887233 -0.2900146 -0.06761371 -0.25008297
000290 60 cb d0 be ae 74 75 3d 73 e4 ca be 60 26 7b bd
       -0.40780163 0.059925728 -0.39627418 -0.061315894
0002a0 81 f4 76 be 9f 41 d9 bd 89 a8 fa bd 72 c1 67 be
       -0.24116708 -0.10608219 -0.12239177 -0.22632387
0002b0 be 31 6b be 8c a6 09 bd a9 bf 86 be 3f af 79 be
       -0.22968194 -0.033606097 -0.263181 -0.24383257
0002c0 1f e2 0c be 06 7e d6 bd 4c d9 7e 3d 14 af 92 be
       -0.13758133 -0.10473256 0.06221895 -0.286492
0002d0 42 66 18 ba 8a 70 d8 bc 78 8a 8e be 0b f4 94 be
       -0.00058135774 -0.02642085 -0.27840018 -0.2909244
0002e0 3c 0e 58 be 87 c9 a1 3d eb d6 42 be e5 22 56 be
       -0.2109918 0.078997664 -0.19027297 -0.20911749
0002f0 10 24 a0 be dd 73 37 be 6a 88 98 bd 12 b1 30 bd
       -0.31277514 -0.17915292 -0.07447894 -0.043137617
000300 1d b2 6e bd 7a 8e 0d be ec c9 ef bd f4 81 57 be
       -0.05827533 -0.13823882 -0.117084354 -0.21045667
000310 67 a3 72 be df b4 89 be 6b 14 49 bc 2b 83 90 3d
       -0.23695146 -0.26895806 -0.012272934 0.07056268
000320 b5 ce ce be 29 4e 80 bd 28 8e 8e bd f2 c4 f2 bd
       -0.4039208 -0.06264908 -0.06960708 -0.118539706
000330 ca 9b 17 be 55 72 71 be cb 48 18 be 6e 19 91 bd
       -0.14805523 -0.2357877 -0.14871518 -0.070849285
000340 36 e0 f3 bd 14 e7 cc bd 8a 8c 5f 3e 62 2b 56 be
       -0.11907999 -0.10005012 0.21830955 -0.20914987
000350 a4 94 1f 3d 76 12 a0 bd 4d 0b 6e bc 4a a8 28 be
       0.038960114 -0.07816021 -0.0145290615 -0.16470447
000360 2a 8d 0d be 4e 36 55 be 45 9c 85 be 86 59 f0 bd
       -0.13823381 -0.20821497 -0.26095787 -0.11735825
000370 8d 3a 28 3d e1 ae 72 be 6f ec 76 be d2 6a 68 be
       0.041071463 -0.23699524 -0.2411363 -0.22696999
000380 b4 e7 9e bd 64 e1 3a 3c dd 25 52 be d5 65 33 be
       -0.077590376 0.011406276 -0.20522256 -0.17519315
000390 43 43 af 3d e8 9b ca be 81 68 b1 be 5a 00 7b be
       0.08557751 -0.39572072 -0.34650043 -0.24511853
0003a0 e5 d6 4e bd c9 d4 86 be 1a 84 93 be 98 ed b0 be
       -0.05049791 -0.26334217 -0.28811723 -0.3455627
0003b0 a0 1a e0 bd d8 5f 8d 3c 15 dc f4 bd d0 8a 17 3e
       -0.10942578 0.017257616 -0.1195604 0.14799047
0003c0 b3 cb 17 be f8 5d 4e be 3f e0 90 be 48 e2 77 be
       -0.14823799 -0.20153034 -0.28296086 -0.24207413
0003d0 ee 16 af be 8c 69 9d be 34 16 c6 3d 63 cf ec bd
       -0.3419718 -0.30744588 0.09672204 -0.115629934
0003e0 aa 7a 54 3d c8 83 8b be 3b f0 fd bc ce a2 06 be
       0.051874794 -0.2724898 -0.03099834 -0.13148043
0003f0 6f 23 96 3c 3c 2f 4c be 61 00 be bc 6f a6 8a be
       0.018327443 -0.19939893 -0.02319354 -0.27080104

fc2.weight f4 [256, 260]
000000 2e e3 db 3b 7e 75 b5 be 68 e8 58 bd 08 a4 18 bd
       0.0067104315 -0.35441202 -0.052956015 -0.037265807
000010 e3 19 43 bc a8 f9 99 3d 59 90 1c be 12 8c 89 3c
       -0.011908027 0.07518321 -0.1528944 0.016790424
000020 5c 49 97 be 7b e2 25 be fd b5 8c bc 93 4c 25 3b
       -0.29548156 -0.16199677 -0.017176623 0.0025222644
000030 a5 81 9a 3d 6a bd 58 bd f6 8f fa 3d ed 1c 1b 3e
       0.07544259 -0.052915014 0.122344896 0.15147753
000040 3e 85 04 bd 48 4f 3a 3d 9f 0f 05 bc f3 ff b6 be
       -0.032353632 0.045485765 -0.0081214 -0.3574215
000050 88 c9 10 ba be 22 4c be b6 d6 45 ba 7b 4d 86 be
       -0.00055231946 -0.19935128 -0.0007546948 -0.26230988
000060 2c 1f cb 3d b4 59 50 3e 0a 34 87 bc 33 54 4a 3d
       0.09918055 0.20346719 -0.016504306 0.049396705
000070 64 a0 a5 3d 3b 4e 37 bd 17 59 81 3d 24 c3 fb bd
       0.08087233 -0.04475234 0.06315821 -0.122930795
000080 2e 2e ad bd 50 ca 49 be 30 25 38 be 12 3b 41 bc
       -0.08456074 -0.19706082 -0.17982936 -0.011793869
000090 f5 9b 36 3c b9 4e 9f be fc bd 06 3d 5d d8 02 3e
       0.0111455815 -0.31114748 0.032896027 0.12777849
0000a0 b8 40 85 bd bb d9 74 bd f0 26 07 3d 07 d9 70 3d
       -0.06506485 -0.059777956 0.032996118 0.058800723
0000b0 06 83 1b bc 4f 6b cb 3d 90 2e e1 bc 95 6e c2 be
       -0.009491688 0.09932577 -0.027488023 -0.37974992
0000c0 79 f3 19 bd 69 7c 66 3d cb b4 53 be b6 3c c2 bb
       -0.03758571 0.05627099 -0.20674436 -0.0059276475
0000d0 73 c2 7f bd 97 ee 99 bd bc 06 37 3e a4 4a 08 be
       -0.0624413 -0.075162105 0.17873663 -0.13309723
0000e0 fa 89 ef 3d 9f 55 38 be fd 09 d5 3c 0f ee 49 bd
       0.11696239 -0.18001412 0.02600574 -0.049299296
0000f0 81 22 60 3e 20 5e ab bd 74 40 cb bd 8e dc 2f 3c
       0.21888162 -0.08367562 -0.09924403 0.010733737
000100 21 11 f8 bd 3e 06 b5 bd 1d 87 0e 3e 4d 38 e4 bd
       -0.12112642 -0.08839081 0.13918729 -0.11143551
000110 db a2 59 be 57 a6 9a 3d 3f 23 ca bc a9 d9 cc bc
       -0.2125353 0.07551258 -0.02467501 -0.025006132
000120 f2 85 bd 3a 0a 34 00 be c9 ae 2b 3e 58 ad 05 be
       0.0014459474 -0.12519851 0.16765894 -0.13054407
000130 25 b6 40 be 85 f3 c9 3d d4 2b 03 3e eb d8 42 be
       -0.18819483 0.09860901 0.12809688 -0.1902806
000140 6c bd 2d be 11 b3 4c be 6c 08 1e be 0e 1f 0e 3d
       -0.1696679 -0.19990183 -0.154329 0.034697585
000150 4b 62 0c 3e 96 9b 8c be 9f 1a ea bd f2 b2 1d be
       0.13709371 -0.27462453 -0.11430859 -0.15400293
000160 8d 4c 94 3d cd 29 cc 3c 27 1c 78 3c 63 11 c5 3b
       0.072411634 0.024922276 0.015143431 0.0060140355
000170 32 f9 a4 bd 63 94 0f 3e 75 a5 83 bd 58 dc 8b bc
       -0.08055343 0.14021449 -0.06428043 -0.017072842
000180 7c d6 30 3e ea 98 c7 bd 09 1f c1 3c f8 49 9d bc
       0.1726932 -0.09745963 0.023574369 -0.01920031
000190 9f 8d dc bd d8 bf 0c 3d 55 28 c4 bd c1 75 97 bd
       -0.107691996 0.034362644 -0.09578005 -0.07395507
0001a0 4b b4 3e 3d 2b 62 d6 bd 0e 4e 4b be e8 49 3b be
       0.04655866 -0.10467943 -0.19853994 -0.18289912
0001b0 38 c4 bd bd 00 ce 53 3e cb 14 ce bd 89 ad d8 bc
       -0.092659414 0.20684052 -0.1006256 -0.026449936
0001c0 2e cf 53 bd 57 5f 03 3c a7 c6 fc 3d db 86 ad be
       -0.051711254 0.008018336 0.123425774 -0.3389195
0001d0 db 05 a7 bd 2b c4 5a 3d ed 76 52 3c a1 9e 21 be
       -0.08155414 0.053409737 0.012845737 -0.15783168
0001e0 c7 be a6 3d 26 03 5e 3d 1d 0d ac bd 8b 3a 0e 3d
       0.08141857 0.05420222 -0.08400939 0.0347238
0001f0 4c 8a 1c 3e 20 1b a6 bd 2a cd aa 3d 9f 7f 70 be
       0.15287131 -0.081106424 0.08339913 -0.23486184
000200 98 16 86 be fc 22 20 bd f8 50 eb bd e2 3d 9b bc
       -0.26189113 -0.039095864 -0.11490053 -0.018950406
000210 ee c1 e3 bd 9b 60 3f 3e 77 cf 99 bd 2f 3c 6b 3e
       -0.111209735 0.18689196 -0.07510274 0.22972177
000220 e2 24 38 3c de 14 4e 3b 01 4b 1d 3d 85 9b ad bc
       0.011239262 0.0031445543 0.038401607 -0.021192322
000230 a6 14 33 bd f7 fa 89 3c 66 c3 57 be 43 50 01 3b
       -0.043720864 0.016843302 -0.21070632 0.0019731678
000240 0e 1e 94 3b fe 1c 62 3d 61 8d 21 bd 8b 10 a0 3e
       0.0045201844 0.05520343 -0.03944147 0.3126262
000250 47 80 7a bd 53 26 88 be 1f 67 0c 3e 6b c0 19 be
       -0.06115749 -0.2659174 0.13711213 -0.15014808
000260 f6 b2 97 3c 78 f8 b5 3c 94 f1 f5 bd 9e 66 75 bc
       0.018517952 0.022213206 -0.12008968 -0.014978079
000270 51 6e c0 3d 3f 93 86 be 73 43 b8 be 78 56 2a be
       0.09396041 -0.26284215 -0.3598896 -0.16634548
000280 c1 bb 79 bd af e3 00 be be 6a c4 bd 79 7b 16 3c
       -0.06097007 -0.12586854 -0.09590672 0.009184712
000290 60 50 80 3d 43 97 a3 3d bd 71 f2 bd 51 bb 14 3e
       0.0626533 0.07987835 -0.118381 0.1452458
0002a0 8c 0b 02 3e 1a bc e3 bd 6b 43 88 be 71 4b 36 3d
       0.12699717 -0.11119862 -0.26613936 0.04450554
0002b0 30 c4 dc 3d 97 de 6b 3d 6a 17 83 be 43 b1 43 3d
       0.10779607 0.057585325 -0.256038 0.04777647
0002c0 88 df d2 bc ed e8 2e 3e f6 67 b3 bd 94 13 e9 3d
       -0.025741354 0.17081042 -0.08760063 0.11380687
0002d0 42 9a 07 3e ef b5 b3 3d f7 97 a1 3b 7d 98 c2 3c
       0.13242438 0.087749355 0.0049314457 0.023754353
0002e0 2c f4 28 be 1d 8c 1b bd 25 6b 51 bd aa 2f 1e 3e
       -0.16499394 -0.03797542 -0.05112757 0.1544787
0002f0 c4 65 47 3d af 88 04 be 7d 3d 0c 3e cf 21 1f be
       0.048681036 -0.12942766 0.13695331 -0.1554024
000300 6f e6 89 3d 9c 0c 5c be e7 c5 e0 bc 75 6f 77 be
       0.06733405 -0.21489185 -0.027438117 -0.24163611
000310 12 f1 e9 3c da 91 95 bd c1 84 0c 3d 0b 93 8e be
       0.028557334 -0.073032096 0.03430629 -0.2784656
000320 99 bf 12 bd 05 f7 1c 3d 8f e7 0b 3e e8 4d d6 bd
       -0.035827253 0.038321514 0.13662551 -0.10464078
000330 20 33 08 bd 7f eb f8 bd ef ad 01 3e a8 59 8f bd
       -0.03325188 -0.12154292 0.12664007 -0.069995224
000340 b8 32 55 be 84 0a 3c be a1 d7 d9 bc 4a b3 4f be
       -0.20820129 -0.18363386 -0.026592078 -0.20283237
000350 00 4a a1 3d 0e 91 66 3c 94 0c 4a 3d 13 e2 d8 bc
       0.078754425 0.01407267 0.0493284 -0.026474988
000360 13 6e 88 3d 8c 1d 11 3d 48 d4 a4 bd 21 c8 6b be
       0.0666162 0.03542857 -0.08048302 -0.23025562
000370 d7 eb 42 be 88 d4 b3 bc 8e 33 51 3e 15 35 e5 3d
       -0.19035278 -0.021951929 0.20429823 0.11191765
000380 ed 60 68 be 90 73 a2 3d 8e 23 31 bc af 11 9c be
       -0.22693224 0.07932198 -0.0108117 -0.30482242
000390 99 7a 8d bc 00 86 81 be d8 86 b6 be 63 bc 1f 3c
       -0.017270373 -0.25297546 -0.35649753 0.009749505
0003a0 f9 33 a1 bd b3 e9 58 bd 56 2c d5 be 11 3b 0f 3d
       -0.07871241 -0.052957248 -0.41635388 0.03496844
0003b0 4e e1 7f be 1f 61 b9 3d 96 cb 34 3a 85 d2 9f bd
       -0.2498829 0.090517275 0.0006896792 -0.07803825
0003c0 12 1b 2c be 99 77 b4 3d bf 3d 42 bc 6f fc f1 3d
       -0.16807202 0.08811874 -0.011855542 0.11815726
0003d0 01 eb c6 3d 64 7d 9e 3d 75 c9 a5 3d 37 af 2c 3e
       0.09712792 0.0773876 0.080950655 0.16863714
0003e0 d6 8a 39 3e f5 61 06 be 72 6c 9e bd 82 a0 2b 3e
       0.18119368 -0.13123305 -0.07735528 0.16760448
0003f0 dd 54 a4 3c 0e 1d f4 3c 4c a4 0c be 19 02 09 bd
       0.020059997 0.02979901 -0.1373455 -0.033449266

fc2.bias f4 [256]
000000 f7 ed 24 be 0f b7 b0 be 81 50 7d be e0 ec 82 3d
       -0.16106401 -0.34514663 -0.24737741 0.063928366
000010 f2 9b d8 3c 35 60 76 be 68 3c 3b be 25 dd a3 bd
       0.026441548 -0.24060138 -0.18284762 -0.08001164
000020 bd 86 58 be 24 7b 45 be 50 d3 63 be 87 97 4c be
       -0.21145149 -0.19285256 -0.22248578 -0.19979678
000030 29 30 c0 3c cb c4 3a be e6 81 82 be c5 fc 98 be
       0.023460465 -0.18239133 -0.2548973 -0.29880348
000040 38 7a 01 bf aa b2 38 be 96 fa 40 3d 5d 30 4d be
       -0.50577116 -0.18036905 0.047113977 -0.2003798
000050 51 6c 81 3e 18 98 ac 3d e6 ff 70 3e a1 0f 4a 3e
       0.2527795 0.08427447 0.23535118 0.19732524
000060 a6 4c 45 be 0e 79 c4 3d 3c 8e 85 be af 0a 84 be
       -0.1926752 0.09593402 -0.2608508 -0.257894
000070 50 41 02 be 0d ee 83 be 39 97 05 3e 5c d7 49 3e
       -0.12720227 -0.25767556 0.13045968 0.1971106
000080 ea 09 52 3e aa 0f ba bd a7 a0 c1 3d 47 38 46 3d
       0.20511594 -0.09085019 0.0945447 0.048393514
000090 f6 73 51 be 7e 96 6a 3e b9 55 4d be 71 6a 58 3d
       -0.20454392 0.2290897 -0.20052232 0.052835885
0000a0 f8 bd 02 3d b8 5f 09 bb b7 94 7c be 15 41 13 3e
       0.03191945 -0.0020961594 -0.24666105 0.14380296
0000b0 b3 1c 6f be 4c 8f 0b 3e 19 ed 8e 3e c4 89 87 be
       -0.23350792 0.13628882 0.27915266 -0.26472294
0000c0 77 05 aa bd 8e 59 5c 3e 2a 4a fa 3d 46 8b ab 3d
       -0.083018236 0.21518537 0.12221177 0.08376174
0000d0 b5 25 1f 3d a1 75 32 be 3b 0d 84 be 84 bf 90 3c
       0.03885432 -0.17427684 -0.25791344 0.017669447
0000e0 dc a1 82 3e 27 91 05 3d ec aa d3 3c 65 2a 52 3e
       0.25514114 0.03260913 0.025838338 0.20523985
0000f0 00 44 4f be 71 f6 5b 3c f8 8b 11 be 0b 2e 96 3b
       -0.20240784 0.013425455 -0.1421355 0.0045831255
000100 fc 14 db 3d 25 2b 32 bd 47 07 e8 bd 8d 2d b7 3d
       0.10697362 -0.043498177 -0.11329513 0.08944235
000110 4e bc 69 be a7 39 83 3d ea 5d 48 bc 19 dd 15 be
       -0.22825739 0.06407481 -0.012229422 -0.14635123
000120 93 5a 4d be 5f e7 52 be ff 69 06 3e 1c 6a 6a be
       -0.20054083 -0.20596074 0.13126372 -0.2289204
000130 07 e3 2f 3d 7e 91 5d 3d c7 cc 54 be b8 d8 33 3d
       0.04294112 0.05409383 -0.20781241 0.04390785
000140 76 a7 81 bd 6c 89 94 bd f4 97 57 be dd 74 43 be
       -0.06330769 -0.07252774 -0.2105406 -0.19087549
000150 b3 bd 5c be e9 83 b6 be 7b ff 9f 3c f4 bc 0c be
       -0.2155674 -0.35647514 0.019531002 -0.13743955
000160 98 b2 61 3e a0 53 83 be 1c f7 5d be fc 18 44 be
       0.22040784 -0.25649738 -0.21676296 -0.19150156
000170 9b d9 7a be 6b fa 2a be 38 9d 3d 3e 96 20 43 be
       -0.24497072 -0.1669709 0.18517005 -0.190554
000180 ed c6 51 3d 7d a4 5c be 0f b7 5f 3e a2 fc 86 be
       0.0512151 -0.21547122 0.21847175 -0.2636462
000190 3f 95 52 be ec 4c 0b 3e 2a 52 0d 3d d0 20 6b 3e
       -0.20564745 0.13603562 0.034502186 0.22961736
0001a0 9b 08 05 3e 64 ae 46 ba fc 2c af 3c 75 3e 29 be
       0.12991564 -0.0007579087 0.021383755 -0.16527732
0001b0 71 ad a8 3d 49 a1 9a be 28 59 0c be d4 1e 3e be
       0.08236206 -0.30201176 -0.13705885 -0.18566447
0001c0 8e a9 ec bd 33 12 57 be c4 6b 05 be ff 80 97 be
       -0.115557775 -0.21003036 -0.1302939 -0.29590604
0001d0 23 43 cf 3d 49 a6 09 be 83 49 56 be 62 ac 53 3d
       0.10120227 -0.13442339 -0.2092648 0.05167807
0001e0 f5 c4 c2 be 74 26 d7 3d 51 d0 b0 3d 65 bd bc be
       -0.3804089 0.10505381 0.08633483 -0.36863247
0001f0 f4 ce 2b 3e f3 74 86 be 76 4b 20 be dd 5a b6 3e
       0.16778165 -0.262611 -0.15653786 0.35616198
000200 6a a3 2c be cf fc e5 3d 11 cf 09 be 23 4b 6f be
       -0.16859213 0.1122986 -0.13457896 -0.23368506
000210 c9 ab 4c bc 72 db 29 3e 9c 96 25 be 7c f6 54 3e
       -0.012492129 0.16587618 -0.16170734 0.20797151
000220 bc 2a da 3d 5f dc 07 3e 52 60 fb 3c 7a 0d 15 3e
       0.10652682 0.13267659 0.030685578 0.14555922
000230 b0 ac 42 3e 52 5c 04 3f da fa cf bd 54 5a 67 be
       0.19011188 0.5170337 -0.10155268 -0.22593051
000240 54 4c 9e 3e 3d 2e 11 bc 3d 2a 80 be 2e 79 25 bc
       0.3091761 -0.008861122 -0.25032225 -0.010099692
000250 91 2e 05 be 9a d6 11 be 4b 04 5e be 50 66 2d 3e
       -0.13006045 -0.1424202 -0.21681325 0.1693356
000260 f0 17 60 bd 2e 89 f7 3d df d0 ec 3e 00 b3 d8 bd
       -0.05471033 0.12086712 0.46253106 -0.105810165
000270 e0 76 7b be 80 3a 78 3e 76 7e 01 bf 40 4c ce bd
       -0.24557066 0.24241066 -0.5058359 -0.10073137
000280 3e cd 44 be 07 62 d4 3d fb 86 22 be c2 4a bf 3b
       -0.19218919 0.1037026 -0.15871803 0.0058377692
000290 7b be 21 3e 9e 18 97 3d 53 4f a3 be 59 cc 10 be
       0.15795319 0.07377742 -0.31896457 -0.14140452
0002a0 79 a0 05 3e 7f 93 04 be c8 6c 4d be 77 d1 b1 3c
       0.13049497 -0.1294689 -0.20061028 0.021706326
0002b0 5c ad 21 3e a8 5e ea bd a4 7e 9f be 90 d5 c2 3d
       0.15788788 -0.114438355 -0.31151307 0.0951339
0002c0 29 41 2b be 38 8e 79 be af cb b2 be 05 de 49 be
       -0.16724075 -0.24370658 -0.34921023 -0.197136
0002d0 a3 bd 41 be cf 62 2c 3d 8f e4 c2 be 38 47 9a 3e
       -0.18919997 0.04208642 -0.38065 0.3013246
0002e0 d1 0a fa 3d 7f eb 99 3d 20 f7 90 be 12 80 78 3d
       0.12209094 0.075156204 -0.2831354 0.060669012
0002f0 30 df 3b 3e 5c 36 5b 3e c1 63 50 be 57 b3 58 be
       0.18346858 0.21407455 -0.20350553 -0.21162163
000300 8a c7 96 bd b7 da 92 be 0a 85 5d be b7 ad 29 be
       -0.07362278 -0.2868249 -0.21632782 -0.16570173
000310 26 ad 8f be 35 50 18 bf dc 28 95 3e 4e 60 97 be
       -0.2806179 -0.59497386 0.29132736 -0.29565662
000320 8c cc 3e be 52 4d 06 3d 35 e6 21 be 84 3d 69 be
       -0.18632716 0.032788582 -0.15810473 -0.22777373
000330 2c 43 cd 3d 6d af 76 be 83 b1 de bd 04 46 2e be
       0.10022578 -0.24090357 -0.108737014 -0.17018896
000340 0c 0b 55 3d 8a 06 c7 bb 04 5b 85 3e 6e d4 73 be
       0.05201249 -0.0060737776 0.26046002 -0.23811504
000350 03 82 ab be ba 70 9c 3e cf 9f 80 3e 75 03 5c be
       -0.3349763 0.30554754 0.25121924 -0.21485694
000360 ba 55 2a 3e ee ae bc 3d d3 1c 1b 3e 0d 32 69 be
       0.16634265 0.09213053 0.15147714 -0.22772999
000370 07 13 14 be da ec 74 3d e6 eb 05 be ec 8f 2e 3e
       -0.14460383 0.05979619 -0.1307827 0.1704709
000380 10 30 4b be bb ca 8b be 71 3f 69 be 01 03 65 be
       -0.19842553 -0.2730311 -0.22778107 -0.22364427
000390 ee bc 53 be 43 14 c0 bc 3a e2 46 be b5 70 40 3e
       -0.2067754 -0.023447162 -0.19422236 0.18792994
0003a0 00 06 ab bd 1d 81 aa 3d ce 52 1f be 30 a2 1e be
       -0.08350754 0.08325408 -0.15558931 -0.15491557
0003b0 b6 19 83 be d7 15 68 be 5a 68 eb 3c 90 54 00 be
       -0.25605553 -0.22664581 0.028736282 -0.12532258
0003c0 07 06 4f bd 98 cd 8f bd 64 05 82 3e ba d6 95 be
       -0.050542857 -0.07021636 0.25394738 -0.29265386
0003d0 a4 75 6d be ec f9 77 be c7 bc 2c be 7f fe 83 be
       -0.23189408 -0.24216431 -0.16868888 -0.25780103
0003e0 a8 fb 36 3d 16 96 00 be 14 ae c1 3c c7 be 81 3d
       0.04467359 -0.12557253 0.023642577 0.06335216
0003f0 40 b5 b3 bc a2 34 80 be a4 17 bf 3d cb 3a 56 be
       -0.021937013 -0.25040156 0.09330681 -0.20920865

fc3.weight f4 [1, 256]
000000 e5 9e ec bd 20 67 80 bd 78 16 6f be 26 87 52 3d
       -0.11553744 -0.062696695 -0.23348415 0.05139842
000010 e3 0a 98 3d 50 b5 86 bd 16 75 d2 be 58 5a 06 3e
       0.074239515 -0.06577551 -0.41104954 0.13120401
000020 74 0a d1 bd 96 32 b7 bd a7 0e 1e bf 1a 24 c2 3d
       -0.10207072 -0.089451954 -0.6174111 0.09479542
000030 39 bb 34 3d bd 2a 74 bd 3a 4c 12 be 82 b5 e7 bd
       0.044123862 -0.05961107 -0.1428689 -0.11313917
000040 a2 fc bd bd 04 b8 28 be ae 7f 9d 3d b0 4b 6a bd
       -0.092767015 -0.16476446 0.076903686 -0.057201087
000050 a6 5d 1a 3d ad e6 4c 3d e6 4b 08 3d 37 48 e5 3c
       0.037686966 0.050024677 0.033275507 0.027988536
000060 e1 67 a7 bd a8 bd 83 3d 2e e4 21 bf 16 a4 63 be
       -0.0817411 0.064326584 -0.632388 -0.22230563
000070 76 59 08 be 2f 8d 3a bf ca 11 44 3d e1 ca 43 3d
       -0.13315377 -0.7287168 0.047868527 0.047800902
000080 62 f8 40 3d f2 e9 cd bd 25 db 48 3d 74 7b 2a 3d
       0.047111876 -0.10054387 0.049037118 0.04162164
000090 00 0b 81 bd 5f 6f 3e 3d 20 4c db bd 04 82 6a 3d
       -0.06300926 0.04649293 -0.10707879 0.0572529
0000a0 cb e0 4a 3d 3e 74 31 3d b5 05 88 be ba 5e 39 3d
       0.049530786 0.043323748 -0.26566854 0.045256354
0000b0 56 26 0c bf ea 3a 22 3d d3 f8 9a 3d f4 37 e0 bd
       -0.54745996 0.039606966 0.07566991 -0.10948172
0000c0 ba b0 00 3e 77 ff 34 3d 57 ef 07 3d 90 0d 3b 3d
       0.12567416 0.044188943 0.033187237 0.04566723
0000d0 e1 5c 81 3d 6d f1 a7 bd 21 2e 01 bf 13 8b 6f 3d
       0.06316543 -0.08200345 -0.5046101 0.05848224
0000e0 45 f9 91 3d 23 ba 49 3d ef 75 86 3d 99 32 37 3d
       0.071276225 0.04924978 0.06565463 0.044725988
0000f0 af 35 02 be 47 93 6b 3d ca 8e 65 bd 62 d5 19 3d
       -0.12715791 0.0575135 -0.056044377 0.037557013
000100 27 43 ec 3c d0 15 98 3d 83 02 bc bd eb ee 4e 3d
       0.028840614 0.074260354 -0.091801666 0.05052082
000110 84 6f 45 bf 80 ea 86 3d 94 1f 90 3d 37 98 5d be
       -0.77123284 0.06587696 0.07037273 -0.21640097
000120 37 a6 44 be 17 a3 c7 be dc 6a 3b 3d a9 e9 15 be
       -0.19204031 -0.38991615 0.045756206 -0.14639916
000130 31 6a 46 3d 40 e6 88 3d 3a 4e 69 be 1b d4 55 3d
       0.048441116 0.06684542 -0.22783747 0.052204233
000140 c9 95 ea 3d c8 fb 9e 3d e4 97 a5 be 3b 30 ce be
       0.114543505 0.07762867 -0.32342446 -0.40271172
000150 69 49 50 be 09 86 16 bf 3e 8f 12 3d ec 6e 3c 3e
       -0.20340504 -0.5879827 0.035781138 0.18401688
000160 7c 1d 2a 3d a5 39 c0 be 89 25 e6 be 3f 37 fe bd
       0.041532025 -0.3754398 -0.44950512 -0.12412881
000170 03 82 06 be db 50 fd bc 58 6d 6b 3d a1 e1 8a bd
       -0.13135533 -0.030922344 0.057477325 -0.067813165
000180 4a 02 7c 3d 2b 11 c0 be 34 eb c4 3c 68 92 1c bd
       0.06152562 -0.37513098 0.024037935 -0.03822556
000190 3b cf e9 bd 9f 85 36 3d 66 50 53 3d 7c 16 60 3d
       -0.11416479 0.044561025 0.051590346 0.054708943
0001a0 32 b3 2a 3d 53 b2 8a 3d 8a 40 7e 3d a3 60 06 be
       0.0416748 0.06772294 0.062073268 -0.13122801
0001b0 15 a2 04 3d b5 2a ef be d4 04 02 3e e6 84 fa 3d
       0.032381136 -0.4671227 0.12697154 0.122323796
0001c0 60 dc 12 3e fa 49 a0 bd c7 53 a9 3d 17 ce 15 bf
       0.14341879 -0.0782661 0.082679324 -0.58517593
0001d0 7a 4e 24 3d e9 6b 0a 3e 36 f2 ba be a9 1c 94 3d
       0.040113904 0.13517727 -0.36512917 0.07232029
0001e0 1d 18 e9 be 0f f0 ba 3d 94 3b 6e 3d 80 22 2b be
       -0.4552621 0.09127819 0.058162287 -0.1671238
0001f0 1b 0d 0f 3d d4 af 03 bf aa c1 8f bd 75 b7 67 3d
       0.034924608 -0.5144017 -0.0701936 0.056571443
000200 1c f3 c5 bd ad 93 2c 3d 86 2a 90 bd ad 9a 03 bf
       -0.0966551 0.042133022 -0.07039361 -0.5140789
000210 1f 1b 24 3d 55 d7 3f 3d c6 72 4c be 94 50 77 3d
       0.040064927 0.046836216 -0.19965658 0.06037958
000220 49 3d 32 3d 21 50 43 3d cd e2 95 3d 1e 71 04 3d
       0.043515477 0.04768384 0.073186494 0.03233444
000230 79 19 e4 3c 90 ce e2 3d c5 fb 2b 3e 15 c8 65 be
       0.027844178 0.11074555 0.16795261 -0.22439606
000240 ad 2f 3e 3d 97 3b 41 3d fb 6c 96 be 54 34 a1 3d
       0.046432186 0.04717597 -0.2938002 0.07871309
000250 bb 98 a8 3d 52 30 c0 bd e5 c9 72 bd 14 d1 24 3d
       0.08232256 -0.09384216 -0.059274573 0.040238455
000260 a0 ba 99 3d c8 4c 51 3d 05 8d ae 3d 47 9a 70 3d
       0.07506299 0.051098615 0.08522991 0.05874088
000270 5b 58 25 be 47 2e 47 3d 5e 9d 1d bf be 4e 1a 3e
       -0.16146986 0.048628118 -0.6156825 0.150691
000280 f9 09 80 be 74 51 36 3d f0 f4 a8 bd 40 c3 af 3d
       -0.2500761 0.044511274 -0.08249843 0.08582163
000290 6e 58 27 3d 14 55 68 3d 6e 45 41 be 1b 75 cb bd
       0.040855817 0.05672176 -0.18874142 -0.099344455
0002a0 40 b7 2a 3d 6a dc a4 bd 84 c7 80 bd 87 7c 12 3d
       0.041678667 -0.08049853 -0.062880546 0.03576329
0002b0 de cf 96 3d 4d 82 b6 3d 8b e2 37 bf ac ea 3d 3d
       0.07363866 0.08911572 -0.7183005 0.04636638
0002c0 b9 79 22 3e 55 ab 37 bd ba a1 ae be 55 c1 83 bd
       0.15866746 -0.04484113 -0.34107763 -0.064333595
0002d0 4b bc 12 be 36 dd 91 3d 2f dd ac bd 48 44 97 3d
       -0.1432964 0.07122271 -0.08440625 0.073860705
0002e0 93 3e 15 3d e2 65 4e 3d fa 6d eb be ed b5 47 3d
       0.03643663 0.05039013 -0.45982343 0.048757482
0002f0 24 11 33 3d 42 b6 98 3d 2a 59 af be 32 ae 0a be
       0.04371752 0.07456638 -0.34247714 -0.13543013
000300 31 88 27 3d 3f ff 72 be cf be 2c be 15 9a 16 be
       0.040901367 -0.23730181 -0.16869663 -0.14707215
000310 69 0d ad bd c9 87 fe bd bc 24 86 3d e3 d3 6b be
       -0.084498234 -0.12428243 0.06549975 -0.23030047
000320 ed 21 c9 bd 35 cd 23 3d 82 0d a5 bd f9 b7 c1 be
       -0.09820924 0.039990623 -0.08059217 -0.37835672
000330 be f2 58 3d 20 4f 27 be cf c1 81 3d cf a9 9a be
       0.052965872 -0.16338778 0.06335794 -0.3020768
000340 a9 ff 88 3d e2 47 6d 3d 60 a0 37 3d cc 52 a0 bd
       0.06689388 0.05792988 0.04483068 -0.07828292
000350 9a 8b bf bd f5 3b 9a 3d ed 70 91 3d be eb d4 be
       -0.09352799 0.07530967 0.07101617 -0.41586107
000360 25 7f 71 3d b6 a6 2d 3d ab d8 3b 3d b6 fd a7 bd
       0.058959145 0.042395316 0.045860928 -0.082026884
000370 ff 3c ce bd 95 aa 29 3d 20 f8 c4 bd b9 26 29 3d
       -0.10070228 0.041422445 -0.096176386 0.041296694
000380 4a 2f d2 be 4a a0 a5 be 44 e0 b4 bd 37 08 4f be
       -0.41051704 -0.32348853 -0.08831838 -0.20217977
000390 37 83 b4 bd 98 40 75 3d 90 04 6e bd cc 94 3b 3d
       -0.0881409 0.059876055 -0.05810982 0.0457962
0003a0 10 02 61 3d cf 48 1e 3d 78 17 34 be c7 4d 9f bd
       0.054933608 0.038643654 -0.17587078 -0.07778507
0003b0 8c 52 99 be 1e 27 08 be 21 53 5d 3d d8 4e 61 3d
       -0.2994579 -0.13296172 0.054034356 0.055006832
0003c0 ac 4b 16 3d c0 0a 90 3d 6b 7d 38 3d f1 89 06 bf
       0.03669326 0.070333004 0.045041483 -0.5255423
0003d0 d0 4a 99 be 32 b9 c7 be ca 49 71 bd df 15 b9 be
       -0.2993989 -0.3900848 -0.05890826 -0.361495
0003e0 da e0 1a 3d 76 b0 2d bd f3 2a 8a 3d b7 99 18 3d
       0.03781209 -0.042404614 0.06746473 0.03725597
0003f0 08 09 e5 3d 71 3a 62 be 32 37 2c 3d 7f dc 79 bd
       0.11183363 -0.22092606 0.042044826 -0.061001297

bn1.weight f4 [256]
000000 0d 62 a7 3e 72 e9 e1 3e e0 f7 f3 3e 85 00 10 3f
       0.32691994 0.44123417 0.4765005 0.5625079
000010 d8 56 c7 3e a6 d1 a9 3e f2 fd a4 3e e8 9c b1 3e
       0.38933444 0.33167762 0.32224995 0.34690022
000020 50 10 b3 3e d8 9b 0c 3f 83 fb 0e 3f e6 5e d0 3e
       0.34973383 0.549253 0.55852526 0.40697402
000030 96 4f b2 3e 1e 49 02 3f 16 7c 80 3e 2d b6 6b 3f
       0.34826344 0.5089282 0.2509467 0.92074853
000040 c3 21 dd 3e 27 47 00 3f d1 b3 d3 3e b8 3a a5 3e
       0.4318982 0.5010857 0.41348127 0.3227136
000050 56 08 d7 3e 60 d1 76 3f 01 09 d2 3e ea 7c 87 3f
       0.41998547 0.9641323 0.41022494 1.0584996
000060 00 89 98 3e 34 c1 3f 3f 14 90 b7 3e 0a 08 0f 3f
       0.29792023 0.7490418 0.3585211 0.5587164
000070 f5 52 36 3f 21 12 08 3f 83 f4 bd 3e 7e b7 ee 3e
       0.7122033 0.5315266 0.3710061 0.46624368
000080 ce 53 c5 3e 0e 25 40 3f a2 4a f8 3e 6b 28 87 3e
       0.385405 0.7505654 0.4849444 0.26398024
000090 39 b5 da 3e db a4 8b 3e e9 a2 ca 3e 2c 48 e9 3e
       0.42716387 0.27274212 0.39577416 0.45562875
0000a0 6c 5f c7 3e 4d 20 ec 3e 21 a9 eb 3e 2f dc af 3e
       0.3893999 0.46118394 0.46027473 0.34347674
0000b0 56 93 c9 3e 71 c3 f6 3e 69 c7 f2 3e 23 3f 9a 3e
       0.3937022 0.48195985 0.47417763 0.30126294
0000c0 b1 6d 13 3f 11 34 ef 3e a1 d0 31 3f 71 20 7b 3e
       0.5758925 0.4671941 0.6945897 0.24524094
0000d0 47 06 02 3f 4b b9 da 3e 42 8c 0d 3f 59 9c e2 3e
       0.5079083 0.42719492 0.5529214 0.4425991
0000e0 65 24 01 3f bb 81 db 3e bc 81 18 3f e6 d3 ea 3e
       0.5044616 0.42872414 0.5957296 0.4586479
0000f0 5f 41 9c 3e 80 5a 47 3f af 53 e2 3e 5f 46 76 3e
       0.30518624 0.7787247 0.4420447 0.24050282
000100 c6 e8 f4 3e 88 4e b5 3e 42 53 15 3f 24 be 56 3e
       0.47833842 0.35411477 0.58330166 0.2097097
000110 0c ed ad 3e 0f 8e 27 3f 7d 7f f2 3e 4d 4f 52 3f
       0.33969915 0.6545114 0.4736289 0.82152253
000120 f0 73 6f 3f 60 78 0c 3f 9b 99 15 3f 95 23 d2 3e
       0.9353628 0.5487118 0.5843751 0.41042772
000130 7e 6d f2 3e 68 11 70 3f 03 03 c4 3e 66 46 d2 3e
       0.4734916 0.9377656 0.38283548 0.41069335
000140 b7 41 0a 3f 20 81 fb 3e e4 7f 02 3f c2 3b d0 3e
       0.5400652 0.49121952 0.50976396 0.40670592
000150 90 5b 0d 3f 37 94 d5 3e 43 a7 07 3f 45 f2 03 3f
       0.5521784 0.4171464 0.52989596 0.5154155
000160 43 70 12 3e 39 89 ab be a4 14 ee 3e dd be e4 3e
       0.14300637 -0.3350313 0.46500123 0.44676867
000170 cb ea a3 3f 5f 8a 95 3e 45 64 14 3f d8 43 f1 3e
       1.2806028 0.2920713 0.579655 0.47122073
000180 b6 7e b9 3e 0e ef 1f 3f de d8 06 3f 31 0d f3 3e
       0.36229485 0.62474144 0.52674663 0.47471002
000190 26 db df 3e 55 59 20 3f 76 82 06 3f 9c 6f d6 3e
       0.43721884 0.6263631 0.5254282 0.41882026
0001a0 a9 d3 0b 3f 4a a9 c0 3e bc c8 ee 3e 39 81 fe 3e
       0.5461984 0.37629157 0.46637523 0.49707964
0001b0 19 96 dd 3e b2 45 1c bd 38 45 07 3f e7 c6 f7 3e
       0.43278578 -0.038152404 0.52839994 0.48393938
0001c0 7b c9 a8 3e 01 3f 05 3f 24 66 08 3f 28 62 f3 3e
       0.32966217 0.5204926 0.53280854 0.47535825
0001d0 c7 bc d4 3e 94 69 02 3f 39 8a fc 3e 72 2c 04 3f
       0.41550276 0.5094235 0.49324206 0.5163032
0001e0 f8 a6 c9 3e 74 86 dc 3e dc 22 ee 3e b4 16 e6 3e
       0.393852 0.4307133 0.4651097 0.44939196
0001f0 99 39 89 3e 21 c7 19 3f af 3b a5 3e 72 e3 c0 3e
       0.26801756 0.6006947 0.32272097 0.37673527
000200 84 58 a1 3e 8a 2c d8 3e 1c 7f 4b 3f cc 03 c5 3e
       0.31512845 0.4222148 0.7949083 0.3847946
000210 07 11 75 3f b3 74 f4 3e e3 1d f0 3e 00 cb 23 3f
       0.95729107 0.47745284 0.46897802 0.6398163
000220 4b 0e ec 3e 6b a3 0a 3f eb e1 cc 3e fe 6f 26 3f
       0.46104655 0.54155606 0.40016112 0.65014637
000230 7f 13 c7 3e 84 67 64 3e f7 42 23 3f 80 33 17 3f
       0.38882062 0.22305113 0.63774055 0.5906296
000240 d5 3d ee 3e d9 68 dd 3e c4 9b f4 3e cf 2f 01 3f
       0.4653155 0.43244055 0.4777509 0.50463575
000250 a4 93 bc 3e 68 a0 1c 3f 6b 76 da 3e 02 e0 e6 3e
       0.3683139 0.6118226 0.4266847 0.4509278
000260 e2 11 e6 3e 7b a0 c5 3e 23 67 01 3f 3b cc 9e 3e
       0.44935519 0.38599 0.50548 0.3101519
000270 7a 0d b0 3e f0 d3 18 3f 9e b6 00 3f 59 f1 d9 3e
       0.34385282 0.5969839 0.5027865 0.42566946
000280 67 d1 f5 3e 00 0b f0 3e 8a df e6 3e 22 88 bd 3e
       0.48011324 0.46883392 0.45092422 0.37017924
000290 ba c9 fe 3e f5 27 f8 3e a3 1c a8 3e 67 73 1e 3f
       0.4976328 0.48467985 0.32834348 0.6189484
0002a0 a1 60 16 3f 36 d9 0b 3f 62 82 26 3f 24 8b 05 3f
       0.58741194 0.5462831 0.650427 0.52165437
0002b0 be 70 9d 3e 69 0b ad 3e 2c d9 c7 3e 5c 3e fe 3e
       0.30750078 0.33797768 0.39032876 0.4965695
0002c0 87 76 ad 3e b3 21 c1 3e 11 9f c1 3e 4e 7d 06 3f
       0.33879492 0.37721023 0.3781667 0.5253495
0002d0 75 a9 80 3d 8c 5b e1 3e de 9f 7d 3e 86 26 dc 3e
       0.06282321 0.44015157 0.24768016 0.4299814
0002e0 4b 28 d0 3e ac ab d0 3e 75 07 0a 3f 65 3b 8d 3f
       0.4065574 0.40755975 0.5391763 1.1033751
0002f0 53 d1 1a 3f c1 06 0b 3f b1 65 ef 3e 48 c5 cf 3e
       0.60475653 0.5430718 0.46757272 0.405802
000300 74 d3 d7 3e a9 c1 d7 3e 79 52 b8 3e 39 ed 0b 3f
       0.42153513 0.42139938 0.36000422 0.5465885
000310 e9 1f 5a 3f 8b 7d dd 3e e9 7d b0 3e a1 5a cf 3e
       0.8520494 0.43259844 0.34471062 0.40498832
000320 11 f6 21 3f 71 46 2e 3f 64 19 12 3f 5f 0a 1a 3f
       0.6326609 0.68076235 0.57069993 0.60172075
000330 3d 2d ee 3e 48 0f 02 3f a4 37 d3 3d e0 5b bf 3e
       0.4651889 0.5080457 0.10313347 0.37374783
000340 77 78 05 3f 2b 16 af 3e c5 23 a4 3e 3a aa 03 3f
       0.5213694 0.341966 0.3205854 0.5143162
000350 f5 b4 0d 3f 57 b0 07 3f 3b 39 b4 3e 8c 18 c2 3e
       0.55354244 0.5300345 0.35199913 0.37909353
000360 f9 3f fd 3e a1 31 13 3f 79 dd 83 3e d1 f4 42 3f
       0.4946287 0.574976 0.25754908 0.7615481
000370 ba 10 32 3f 05 31 83 3e b1 7d c9 3e 6e 06 01 3f
       0.6955677 0.25623336 0.39353707 0.50400436
000380 99 8e be 3e e6 7f 01 3f d1 03 5f 3e 82 05 f1 3e
       0.37218168 0.5058578 0.217788 0.47074515
000390 24 f4 b9 3e d9 9f c9 3e f7 eb 12 3f 3f 8a 04 3f
       0.36319077 0.39379767 0.57391304 0.51773447
0003a0 89 1c 6c 3f b0 da 08 3f 69 93 cd 3e ce c9 00 3f
       0.9223104 0.5345869 0.40151528 0.5030793
0003b0 7c 13 ea 3e 0c b1 e5 3e b3 82 b7 3e 54 e2 bb 3e
       0.4571799 0.4486164 0.35841903 0.36696112
0003c0 27 9f 1c 3f 73 da e6 3e 52 b9 b8 3e 93 7e af 3e
       0.6118035 0.4508854 0.36078888 0.34276256
0003d0 e2 ca f0 3e f7 22 cb 3e ae b8 bc 3e ab ad 9d 3d
       0.47029787 0.39675114 0.3685965 0.0769914
0003e0 97 aa 25 3f 2e be 12 3f 32 2a 12 3f 56 1e 24 3f
       0.64713424 0.5732144 0.57095635 0.6410879
0003f0 da c3 1d 3f 28 3a d5 3e 45 c5 e2 3e 53 9e 10 3f
       0.6162697 0.41645932 0.4429113 0.56491584

bn1.bias f4 [256]
000000 f3 d7 59 bc 0f 11 d8 3d a0 36 ec bc 11 12 fb 3d
       -0.013296115 0.10550129 -0.028834641 0.12259305
000010 0f 92 cf 3d 2a 02 8e 3b b6 b8 0d 3e 2a 36 eb bd
       0.1013528 0.004333754 0.13839993 -0.1148494
000020 f2 fb dd bd 32 55 d1 3d a6 41 8a 3e fb 9b d1 3d
       -0.108390704 0.10221328 0.2700321 0.10234829
000030 17 9c 44 3e 31 3c f4 3c ee b1 dc bc 4b 63 7e bd
       0.19200169 0.029813858 -0.026940312 -0.062106412
000040 4d 30 c8 3c f3 57 b2 3b bd 13 07 3e d4 48 fc 3d
       0.024437094 0.0054426133 0.13191123 0.12318578
000050 97 d0 fe 3c 52 d5 a7 3e b0 b1 c4 3d c2 29 15 3d
       0.031105323 0.32779938 0.09604204 0.036416776
000060 6e 2a ca bd b6 0a 2c be 6b 42 ed 3d b9 ab ee 3d
       -0.09871374 -0.16800961 0.11584934 0.11653847
000070 97 de 3a 3e 0a 04 7b be 68 2e 7c 3e 0b 5c 5a 3e
       0.18248974 -0.2451326 0.24627078 0.21324174
000080 27 a6 cf bc b0 69 5f 3e d3 d8 1f 3e e6 f2 a6 3e
       -0.025347782 0.2181766 0.15610056 0.32607192
000090 a2 ea ba bd 99 98 cc 3d e3 10 d1 3b 65 c7 5e 3d
       -0.09126784 0.09990043 0.006380187 0.054389376
0000a0 d8 3e 08 3e 07 3f 46 be b0 22 e8 3d 86 10 35 be
       0.13305223 -0.1935998 0.11334741 -0.17682084
0000b0 47 88 a2 bd 57 2d 39 bd 47 46 83 bc 78 f6 71 3d
       -0.07936149 -0.045209255 -0.016024722 0.05907294
0000c0 0f ce 1c 3d 5b c3 48 be fa 5c 16 3e f9 fa 43 be
       0.03828245 -0.19605772 0.14683905 -0.19138707
0000d0 eb 5e a0 3c 4d 64 18 be f4 da ef 3d 6f c9 16 bd
       0.01957651 -0.14882012 0.11711684 -0.036813196
0000e0 af 69 70 3d 89 48 9b 3d ce 5f 6a 3e de f3 df bd
       0.058694538 0.07582194 0.22888109 -0.10935186
0000f0 94 e7 91 3d 7b 90 bd bd f5 76 36 3e 45 d0 c1 be
       0.07124248 -0.09256073 0.17818816 -0.3785421
000100 e5 e7 21 3e c4 65 20 3e 4c 55 95 3e d6 c6 56 be
       0.15811117 0.1566382 0.2916664 -0.20974287
000110 4a 24 b8 3d e7 7a 30 3e c7 71 16 be 9f 63 c4 3d
       0.089912966 0.17234384 -0.1469184 0.09589314
000120 5b 18 9f 3d 04 fc 3b bc 89 ae 81 bd cd aa e0 bd
       0.07768317 -0.011473659 -0.06332118 -0.10970078
000130 0d 76 55 3d a6 a9 77 3e a8 2a bf bd 8e 28 1e 3e
       0.052114535 0.2418581 -0.09334308 0.15445158
000140 cb 47 2b 3e e9 48 12 3e d2 5a d2 3d a7 fe 57 3d
       0.16726606 0.14285626 0.10271229 0.05273309
000150 e2 b7 26 3c 05 08 da bc b9 6c c6 3b f2 ac 83 3d
       0.010175677 -0.026615152 0.006055441 0.06429471
000160 c3 19 8d be f6 e1 12 be 03 a8 8b bd a1 2b 23 3d
       -0.27558717 -0.1434401 -0.06819155 0.03983653
000170 18 2d 78 bd 7c b3 ba 3d 6e 9f 49 3e e2 ed 82 be
       -0.06058988 0.09116265 0.19689724 -0.25572115
000180 bc 9c b7 bd 4b 2b 7a 3e bb fd 76 be 1b 7f 31 bd
       -0.089654416 0.24430577 -0.24120228 -0.043334108
000190 fc 6a 0b 3e c3 35 11 3e 11 da 0b 3e 18 06 7e bc
       0.1361503 0.14180665 0.13657404 -0.015504383
0001a0 2d b4 d7 3d 7d 16 02 3e df 36 b9 3d d7 0a 93 3e
       0.10532413 0.12703891 0.09043669 0.28719208
0001b0 ec bf 5b 3c 74 d3 dd be 80 06 cd ba 3b 98 2c bd
       0.013412457 -0.43325388 -0.0015642196 -0.042137366
0001c0 16 55 36 bc df 8c 26 3e e5 af 92 3d 9f 41 c7 3d
       -0.0111286845 0.16264676 0.071624555 0.09729313
0001d0 54 56 3e 3e 7e 7e 2e 3c a9 89 6c 3d 12 c7 46 3b
       0.18587619 0.010650275 0.05774847 0.0030331057
0001e0 42 f6 41 bd 80 68 2d 3e 31 ae e1 3d f9 48 2d 3e
       -0.04735399 0.16934395 0.110195525 0.16922368
0001f0 5c d7 d8 3d 17 3c 37 3e 37 83 b0 3d 67 fe 98 3c
       0.105879515 0.17894016 0.08618777 0.018675996
000200 c7 81 2e 3e c9 76 a7 3c 12 3a da 3d b5 36 9e 3d
       0.17041694 0.020442383 0.10655607 0.07725278
000210 e2 cf 90 3b 26 8a 15 3e 22 65 a6 3d 01 2f 55 3e
       0.004419313 0.1460348 0.08124758 0.20818712
000220 74 09 d7 b8 af eb 5f 3b 50 8e d6 3d 33 7f 2f 3e
       -0.0001025376 0.0034167578 0.10476363 0.17138366
000230 71 a4 0a 3e 1c d7 80 3d f6 48 7c 3d e5 34 5c 3d
       0.13539292 0.06291029 0.06159302 0.05376138
000240 32 8a 44 3c ef 90 3a 3e 81 2b 65 3d a9 e9 52 bc
       0.011995839 0.1821935 0.05594969 -0.012873092
000250 a6 1e b9 3d ae 61 ab 3e 8d 6d 20 3e 60 36 c8 3d
       0.09039049 0.3347296 0.1566679 0.09775996
000260 13 6c 09 be 41 e7 33 bd 5a cb 23 3e 37 f9 3d 3d
       -0.13420133 -0.043921713 0.15995541 0.046380248
000270 58 c1 38 3e f9 88 4d 3d 68 51 19 3e 10 54 57 bc
       0.18042505 0.050179455 0.1497246 -0.013142601
000280 0a e3 c2 bd a2 f5 07 be a4 f2 93 3d ba 79 1c 3e
       -0.095159605 -0.13277295 0.072240144 0.1528081
000290 aa 0c 73 3d 44 09 3e 3d 73 d1 86 bb ce 05 ce 3d
       0.05933825 0.046395555 -0.0041143238 0.10059701
0002a0 7c a4 73 3d ff ed 66 3e c0 99 f4 bd eb 68 9c 3d
       0.059483036 0.22551726 -0.11943388 0.07637199
0002b0 fc 9d 3c 3d a1 56 b0 bd 59 dc 66 3d 38 ce 8a 3d
       0.046049103 -0.08610273 0.056362484 0.06777614
0002c0 15 85 74 3d 7f 53 48 ba ee d6 82 bb b3 ca e2 3d
       0.05969723 -0.00076418364 -0.003992907 0.11073818
0002d0 60 0f c5 be 4b 3a fe 3d f1 bc d3 bc f6 4b e8 3d
       -0.38488293 0.12413462 -0.02584693 0.113426134
0002e0 60 24 a1 bb 05 21 b2 3d 1c 09 07 3d d4 5c 88 3e
       -0.0049176663 0.08697704 0.03296767 0.26633322
0002f0 76 24 30 3d b2 4c e7 3d 8b 55 87 3d a0 80 d3 3b
       0.04300352 0.11293925 0.06608113 0.0064545423
000300 59 59 60 3e 63 ed 91 3d 3a 2b 25 bd 99 3c 20 3e
       0.21909083 0.07125356 -0.040324427 0.15648116
000310 ee 02 dc 3d 58 9d 4d 3b 6f aa fe 3d 00 75 05 3d
       0.10742746 0.0031374302 0.124348514 0.032582283
000320 71 e4 93 3c ab ec 93 3e 44 b4 28 3e 3b a5 f6 3d
       0.018053265 0.288915 0.16475016 0.12043234
000330 68 99 ba 3d 10 fc c7 3d 06 9b c1 be 9c 84 ee 3d
       0.09111291 0.09764874 -0.37813586 0.11646387
000340 a4 1a 2f 3e 60 72 ee 3d 31 e5 a0 bd f7 59 03 3e
       0.17100006 0.11642909 -0.07856215 0.12827288
000350 f6 aa c2 bb 44 f5 19 3c e1 3c 7c be e8 df 28 3e
       -0.0059407903 0.009396855 -0.24632598 0.16491663
000360 93 78 50 3e 6a b8 17 3e 82 6a 4c be 07 e2 1b 3e
       0.20358495 0.14816442 -0.19962505 0.15222941
000370 fd eb 4d bd 3a fc 9f be 7b dd d6 3d b0 a9 42 bd
       -0.050273884 -0.3124712 0.10491463 -0.047525108
000380 3f f3 30 3e e3 1e a5 3c c4 cd 07 be da ea 9a 3a
       0.17280291 0.02015633 -0.13262087 0.0011819259
000390 6e ad 7a 3e 30 cf 89 3d f6 25 14 3e ea 88 c5 3d
       0.2448022 0.06728971 0.14467606 0.09645255
0003a0 67 f3 e1 3d 8e ec 93 3e d3 91 fc 3d 74 5b 78 bd
       0.110327534 0.28891414 0.12332501 -0.06063409
0003b0 14 63 70 3e d6 d8 94 3d 58 2f 4b 3e 09 25 ca 3d
       0.23475295 0.07267921 0.19842279 0.09870345
0003c0 15 93 d7 3d eb 9a 9d bd 26 56 b0 3d d0 57 9f bc
       0.105261005 -0.07695564 0.086101815 -0.019451052
0003d0 ef 0c 73 bc 2e 95 57 bd 58 91 3e 3d 0d e1 ae be
       -0.014834627 -0.052632503 0.04652533 -0.34156075
0003e0 10 9b d0 3d 4a ac 67 3d 39 57 a7 3d bd cf d0 bd
       0.10185826 0.056560792 0.08170933 -0.10195873
0003f0 5d 9d 37 3d d5 f7 7c 3e de 01 c6 bd bf 65 7b 3e
       0.044827808 0.24703915 -0.09668325 0.24550532
